{
  "nodes": [
    {
      "op": "null", 
      "name": "data", 
      "inputs": []
    }, 
    {
      "op": "null", 
      "name": "stem1_weight", 
      "attrs": {
        "dilate": "(1, 1)", 
        "kernel": "(3, 3)", 
        "layout": "NCHW", 
        "no_bias": "True", 
        "num_filter": "16", 
        "num_group": "1", 
        "pad": "(1, 1)", 
        "stride": "(2, 2)"
      }, 
      "inputs": []
    }, 
    {
      "op": "Convolution", 
      "name": "stem1", 
      "attrs": {
        "dilate": "(1, 1)", 
        "kernel": "(3, 3)", 
        "layout": "NCHW", 
        "no_bias": "True", 
        "num_filter": "16", 
        "num_group": "1", 
        "pad": "(1, 1)", 
        "stride": "(2, 2)"
      }, 
      "inputs": [[0, 0, 0], [1, 0, 0]]
    }, 
    {
      "op": "null", 
      "name": "stem1/bn_gamma", 
      "attrs": {
        "axis": "1", 
        "eps": "0.0010000000475", 
        "fix_gamma": "False", 
        "momentum": "0.0", 
        "use_global_stats": "False"
      }, 
      "inputs": []
    }, 
    {
      "op": "null", 
      "name": "stem1/bn_beta", 
      "attrs": {
        "axis": "1", 
        "eps": "0.0010000000475", 
        "fix_gamma": "False", 
        "momentum": "0.0", 
        "use_global_stats": "False"
      }, 
      "inputs": []
    }, 
    {
      "op": "null", 
      "name": "stem1/bn_moving_mean", 
      "attrs": {
        "__init__": "[\"zero\", {}]", 
        "axis": "1", 
        "eps": "0.0010000000475", 
        "fix_gamma": "False", 
        "momentum": "0.0", 
        "use_global_stats": "False"
      }, 
      "inputs": []
    }, 
    {
      "op": "null", 
      "name": "stem1/bn_moving_var", 
      "attrs": {
        "__init__": "[\"one\", {}]", 
        "axis": "1", 
        "eps": "0.0010000000475", 
        "fix_gamma": "False", 
        "momentum": "0.0", 
        "use_global_stats": "False"
      }, 
      "inputs": []
    }, 
    {
      "op": "BatchNorm", 
      "name": "stem1/bn", 
      "attrs": {
        "axis": "1", 
        "eps": "0.0010000000475", 
        "fix_gamma": "False", 
        "momentum": "0.0", 
        "use_global_stats": "False"
      }, 
      "inputs": [[2, 0, 0], [3, 0, 0], [4, 0, 0], [5, 0, 1], [6, 0, 1]]
    }, 
    {
      "op": "Activation", 
      "name": "stem1/relu", 
      "attrs": {"act_type": "relu"}, 
      "inputs": [[7, 0, 0]]
    }, 
    {
      "op": "null", 
      "name": "stem2_weight", 
      "attrs": {
        "dilate": "(1, 1)", 
        "kernel": "(3, 3)", 
        "layout": "NCHW", 
        "no_bias": "True", 
        "num_filter": "32", 
        "num_group": "1", 
        "pad": "(1, 1)", 
        "stride": "(2, 2)"
      }, 
      "inputs": []
    }, 
    {
      "op": "Convolution", 
      "name": "stem2", 
      "attrs": {
        "dilate": "(1, 1)", 
        "kernel": "(3, 3)", 
        "layout": "NCHW", 
        "no_bias": "True", 
        "num_filter": "32", 
        "num_group": "1", 
        "pad": "(1, 1)", 
        "stride": "(2, 2)"
      }, 
      "inputs": [[8, 0, 0], [9, 0, 0]]
    }, 
    {
      "op": "null", 
      "name": "stem2/bn_gamma", 
      "attrs": {
        "axis": "1", 
        "eps": "0.0010000000475", 
        "fix_gamma": "False", 
        "momentum": "0.0", 
        "use_global_stats": "False"
      }, 
      "inputs": []
    }, 
    {
      "op": "null", 
      "name": "stem2/bn_beta", 
      "attrs": {
        "axis": "1", 
        "eps": "0.0010000000475", 
        "fix_gamma": "False", 
        "momentum": "0.0", 
        "use_global_stats": "False"
      }, 
      "inputs": []
    }, 
    {
      "op": "null", 
      "name": "stem2/bn_moving_mean", 
      "attrs": {
        "__init__": "[\"zero\", {}]", 
        "axis": "1", 
        "eps": "0.0010000000475", 
        "fix_gamma": "False", 
        "momentum": "0.0", 
        "use_global_stats": "False"
      }, 
      "inputs": []
    }, 
    {
      "op": "null", 
      "name": "stem2/bn_moving_var", 
      "attrs": {
        "__init__": "[\"one\", {}]", 
        "axis": "1", 
        "eps": "0.0010000000475", 
        "fix_gamma": "False", 
        "momentum": "0.0", 
        "use_global_stats": "False"
      }, 
      "inputs": []
    }, 
    {
      "op": "BatchNorm", 
      "name": "stem2/bn", 
      "attrs": {
        "axis": "1", 
        "eps": "0.0010000000475", 
        "fix_gamma": "False", 
        "momentum": "0.0", 
        "use_global_stats": "False"
      }, 
      "inputs": [[10, 0, 0], [11, 0, 0], [12, 0, 0], [13, 0, 1], [14, 0, 1]]
    }, 
    {
      "op": "Activation", 
      "name": "stem2/relu", 
      "attrs": {"act_type": "relu"}, 
      "inputs": [[15, 0, 0]]
    }, 
    {
      "op": "null", 
      "name": "stem3_weight", 
      "attrs": {
        "dilate": "(1, 1)", 
        "kernel": "(3, 3)", 
        "layout": "NCHW", 
        "no_bias": "True", 
        "num_filter": "64", 
        "num_group": "1", 
        "pad": "(1, 1)", 
        "stride": "(2, 2)"
      }, 
      "inputs": []
    }, 
    {
      "op": "Convolution", 
      "name": "stem3", 
      "attrs": {
        "dilate": "(1, 1)", 
        "kernel": "(3, 3)", 
        "layout": "NCHW", 
        "no_bias": "True", 
        "num_filter": "64", 
        "num_group": "1", 
        "pad": "(1, 1)", 
        "stride": "(2, 2)"
      }, 
      "inputs": [[16, 0, 0], [17, 0, 0]]
    }, 
    {
      "op": "null", 
      "name": "stem3/bn_gamma", 
      "attrs": {
        "axis": "1", 
        "eps": "0.0010000000475", 
        "fix_gamma": "False", 
        "momentum": "0.0", 
        "use_global_stats": "False"
      }, 
      "inputs": []
    }, 
    {
      "op": "null", 
      "name": "stem3/bn_beta", 
      "attrs": {
        "axis": "1", 
        "eps": "0.0010000000475", 
        "fix_gamma": "False", 
        "momentum": "0.0", 
        "use_global_stats": "False"
      }, 
      "inputs": []
    }, 
    {
      "op": "null", 
      "name": "stem3/bn_moving_mean", 
      "attrs": {
        "__init__": "[\"zero\", {}]", 
        "axis": "1", 
        "eps": "0.0010000000475", 
        "fix_gamma": "False", 
        "momentum": "0.0", 
        "use_global_stats": "False"
      }, 
      "inputs": []
    }, 
    {
      "op": "null", 
      "name": "stem3/bn_moving_var", 
      "attrs": {
        "__init__": "[\"one\", {}]", 
        "axis": "1", 
        "eps": "0.0010000000475", 
        "fix_gamma": "False", 
        "momentum": "0.0", 
        "use_global_stats": "False"
      }, 
      "inputs": []
    }, 
    {
      "op": "BatchNorm", 
      "name": "stem3/bn", 
      "attrs": {
        "axis": "1", 
        "eps": "0.0010000000475", 
        "fix_gamma": "False", 
        "momentum": "0.0", 
        "use_global_stats": "False"
      }, 
      "inputs": [[18, 0, 0], [19, 0, 0], [20, 0, 0], [21, 0, 1], [22, 0, 1]]
    }, 
    {
      "op": "Activation", 
      "name": "stem3/relu", 
      "attrs": {"act_type": "relu"}, 
      "inputs": [[23, 0, 0]]
    }, 
    {
      "op": "null", 
      "name": "stage1_1/branch2a_weight", 
      "attrs": {
        "dilate": "(1, 1)", 
        "kernel": "(1, 1)", 
        "layout": "NCHW", 
        "no_bias": "True", 
        "num_filter": "16", 
        "num_group": "1", 
        "pad": "(0, 0)", 
        "stride": "(1, 1)"
      }, 
      "inputs": []
    }, 
    {
      "op": "Convolution", 
      "name": "stage1_1/branch2a", 
      "attrs": {
        "dilate": "(1, 1)", 
        "kernel": "(1, 1)", 
        "layout": "NCHW", 
        "no_bias": "True", 
        "num_filter": "16", 
        "num_group": "1", 
        "pad": "(0, 0)", 
        "stride": "(1, 1)"
      }, 
      "inputs": [[24, 0, 0], [25, 0, 0]]
    }, 
    {
      "op": "null", 
      "name": "stage1_1/branch2a/bn_gamma", 
      "attrs": {
        "axis": "1", 
        "eps": "0.0010000000475", 
        "fix_gamma": "False", 
        "momentum": "0.0", 
        "use_global_stats": "False"
      }, 
      "inputs": []
    }, 
    {
      "op": "null", 
      "name": "stage1_1/branch2a/bn_beta", 
      "attrs": {
        "axis": "1", 
        "eps": "0.0010000000475", 
        "fix_gamma": "False", 
        "momentum": "0.0", 
        "use_global_stats": "False"
      }, 
      "inputs": []
    }, 
    {
      "op": "null", 
      "name": "stage1_1/branch2a/bn_moving_mean", 
      "attrs": {
        "__init__": "[\"zero\", {}]", 
        "axis": "1", 
        "eps": "0.0010000000475", 
        "fix_gamma": "False", 
        "momentum": "0.0", 
        "use_global_stats": "False"
      }, 
      "inputs": []
    }, 
    {
      "op": "null", 
      "name": "stage1_1/branch2a/bn_moving_var", 
      "attrs": {
        "__init__": "[\"one\", {}]", 
        "axis": "1", 
        "eps": "0.0010000000475", 
        "fix_gamma": "False", 
        "momentum": "0.0", 
        "use_global_stats": "False"
      }, 
      "inputs": []
    }, 
    {
      "op": "BatchNorm", 
      "name": "stage1_1/branch2a/bn", 
      "attrs": {
        "axis": "1", 
        "eps": "0.0010000000475", 
        "fix_gamma": "False", 
        "momentum": "0.0", 
        "use_global_stats": "False"
      }, 
      "inputs": [[26, 0, 0], [27, 0, 0], [28, 0, 0], [29, 0, 1], [30, 0, 1]]
    }, 
    {
      "op": "Activation", 
      "name": "stage1_1/branch2a/relu", 
      "attrs": {"act_type": "relu"}, 
      "inputs": [[31, 0, 0]]
    }, 
    {
      "op": "null", 
      "name": "stage1_1/branch2b_weight", 
      "attrs": {
        "dilate": "(1, 1)", 
        "kernel": "(3, 3)", 
        "layout": "NCHW", 
        "no_bias": "True", 
        "num_filter": "32", 
        "num_group": "1", 
        "pad": "(1, 1)", 
        "stride": "(1, 1)"
      }, 
      "inputs": []
    }, 
    {
      "op": "Convolution", 
      "name": "stage1_1/branch2b", 
      "attrs": {
        "dilate": "(1, 1)", 
        "kernel": "(3, 3)", 
        "layout": "NCHW", 
        "no_bias": "True", 
        "num_filter": "32", 
        "num_group": "1", 
        "pad": "(1, 1)", 
        "stride": "(1, 1)"
      }, 
      "inputs": [[32, 0, 0], [33, 0, 0]]
    }, 
    {
      "op": "null", 
      "name": "stage1_1/branch2b/bn_gamma", 
      "attrs": {
        "axis": "1", 
        "eps": "0.0010000000475", 
        "fix_gamma": "False", 
        "momentum": "0.0", 
        "use_global_stats": "False"
      }, 
      "inputs": []
    }, 
    {
      "op": "null", 
      "name": "stage1_1/branch2b/bn_beta", 
      "attrs": {
        "axis": "1", 
        "eps": "0.0010000000475", 
        "fix_gamma": "False", 
        "momentum": "0.0", 
        "use_global_stats": "False"
      }, 
      "inputs": []
    }, 
    {
      "op": "null", 
      "name": "stage1_1/branch2b/bn_moving_mean", 
      "attrs": {
        "__init__": "[\"zero\", {}]", 
        "axis": "1", 
        "eps": "0.0010000000475", 
        "fix_gamma": "False", 
        "momentum": "0.0", 
        "use_global_stats": "False"
      }, 
      "inputs": []
    }, 
    {
      "op": "null", 
      "name": "stage1_1/branch2b/bn_moving_var", 
      "attrs": {
        "__init__": "[\"one\", {}]", 
        "axis": "1", 
        "eps": "0.0010000000475", 
        "fix_gamma": "False", 
        "momentum": "0.0", 
        "use_global_stats": "False"
      }, 
      "inputs": []
    }, 
    {
      "op": "BatchNorm", 
      "name": "stage1_1/branch2b/bn", 
      "attrs": {
        "axis": "1", 
        "eps": "0.0010000000475", 
        "fix_gamma": "False", 
        "momentum": "0.0", 
        "use_global_stats": "False"
      }, 
      "inputs": [[34, 0, 0], [35, 0, 0], [36, 0, 0], [37, 0, 1], [38, 0, 1]]
    }, 
    {
      "op": "Activation", 
      "name": "stage1_1/branch2b/relu", 
      "attrs": {"act_type": "relu"}, 
      "inputs": [[39, 0, 0]]
    }, 
    {
      "op": "Concat", 
      "name": "stage1_1/concat", 
      "attrs": {
        "dim": "1", 
        "num_args": "2"
      }, 
      "inputs": [[24, 0, 0], [40, 0, 0]]
    }, 
    {
      "op": "null", 
      "name": "stage1_2/branch2a_weight", 
      "attrs": {
        "dilate": "(1, 1)", 
        "kernel": "(1, 1)", 
        "layout": "NCHW", 
        "no_bias": "True", 
        "num_filter": "16", 
        "num_group": "1", 
        "pad": "(0, 0)", 
        "stride": "(1, 1)"
      }, 
      "inputs": []
    }, 
    {
      "op": "Convolution", 
      "name": "stage1_2/branch2a", 
      "attrs": {
        "dilate": "(1, 1)", 
        "kernel": "(1, 1)", 
        "layout": "NCHW", 
        "no_bias": "True", 
        "num_filter": "16", 
        "num_group": "1", 
        "pad": "(0, 0)", 
        "stride": "(1, 1)"
      }, 
      "inputs": [[41, 0, 0], [42, 0, 0]]
    }, 
    {
      "op": "null", 
      "name": "stage1_2/branch2a/bn_gamma", 
      "attrs": {
        "axis": "1", 
        "eps": "0.0010000000475", 
        "fix_gamma": "False", 
        "momentum": "0.0", 
        "use_global_stats": "False"
      }, 
      "inputs": []
    }, 
    {
      "op": "null", 
      "name": "stage1_2/branch2a/bn_beta", 
      "attrs": {
        "axis": "1", 
        "eps": "0.0010000000475", 
        "fix_gamma": "False", 
        "momentum": "0.0", 
        "use_global_stats": "False"
      }, 
      "inputs": []
    }, 
    {
      "op": "null", 
      "name": "stage1_2/branch2a/bn_moving_mean", 
      "attrs": {
        "__init__": "[\"zero\", {}]", 
        "axis": "1", 
        "eps": "0.0010000000475", 
        "fix_gamma": "False", 
        "momentum": "0.0", 
        "use_global_stats": "False"
      }, 
      "inputs": []
    }, 
    {
      "op": "null", 
      "name": "stage1_2/branch2a/bn_moving_var", 
      "attrs": {
        "__init__": "[\"one\", {}]", 
        "axis": "1", 
        "eps": "0.0010000000475", 
        "fix_gamma": "False", 
        "momentum": "0.0", 
        "use_global_stats": "False"
      }, 
      "inputs": []
    }, 
    {
      "op": "BatchNorm", 
      "name": "stage1_2/branch2a/bn", 
      "attrs": {
        "axis": "1", 
        "eps": "0.0010000000475", 
        "fix_gamma": "False", 
        "momentum": "0.0", 
        "use_global_stats": "False"
      }, 
      "inputs": [[43, 0, 0], [44, 0, 0], [45, 0, 0], [46, 0, 1], [47, 0, 1]]
    }, 
    {
      "op": "Activation", 
      "name": "stage1_2/branch2a/relu", 
      "attrs": {"act_type": "relu"}, 
      "inputs": [[48, 0, 0]]
    }, 
    {
      "op": "null", 
      "name": "stage1_2/branch2b_weight", 
      "attrs": {
        "dilate": "(1, 1)", 
        "kernel": "(3, 3)", 
        "layout": "NCHW", 
        "no_bias": "True", 
        "num_filter": "32", 
        "num_group": "1", 
        "pad": "(1, 1)", 
        "stride": "(1, 1)"
      }, 
      "inputs": []
    }, 
    {
      "op": "Convolution", 
      "name": "stage1_2/branch2b", 
      "attrs": {
        "dilate": "(1, 1)", 
        "kernel": "(3, 3)", 
        "layout": "NCHW", 
        "no_bias": "True", 
        "num_filter": "32", 
        "num_group": "1", 
        "pad": "(1, 1)", 
        "stride": "(1, 1)"
      }, 
      "inputs": [[49, 0, 0], [50, 0, 0]]
    }, 
    {
      "op": "null", 
      "name": "stage1_2/branch2b/bn_gamma", 
      "attrs": {
        "axis": "1", 
        "eps": "0.0010000000475", 
        "fix_gamma": "False", 
        "momentum": "0.0", 
        "use_global_stats": "False"
      }, 
      "inputs": []
    }, 
    {
      "op": "null", 
      "name": "stage1_2/branch2b/bn_beta", 
      "attrs": {
        "axis": "1", 
        "eps": "0.0010000000475", 
        "fix_gamma": "False", 
        "momentum": "0.0", 
        "use_global_stats": "False"
      }, 
      "inputs": []
    }, 
    {
      "op": "null", 
      "name": "stage1_2/branch2b/bn_moving_mean", 
      "attrs": {
        "__init__": "[\"zero\", {}]", 
        "axis": "1", 
        "eps": "0.0010000000475", 
        "fix_gamma": "False", 
        "momentum": "0.0", 
        "use_global_stats": "False"
      }, 
      "inputs": []
    }, 
    {
      "op": "null", 
      "name": "stage1_2/branch2b/bn_moving_var", 
      "attrs": {
        "__init__": "[\"one\", {}]", 
        "axis": "1", 
        "eps": "0.0010000000475", 
        "fix_gamma": "False", 
        "momentum": "0.0", 
        "use_global_stats": "False"
      }, 
      "inputs": []
    }, 
    {
      "op": "BatchNorm", 
      "name": "stage1_2/branch2b/bn", 
      "attrs": {
        "axis": "1", 
        "eps": "0.0010000000475", 
        "fix_gamma": "False", 
        "momentum": "0.0", 
        "use_global_stats": "False"
      }, 
      "inputs": [[51, 0, 0], [52, 0, 0], [53, 0, 0], [54, 0, 1], [55, 0, 1]]
    }, 
    {
      "op": "Activation", 
      "name": "stage1_2/branch2b/relu", 
      "attrs": {"act_type": "relu"}, 
      "inputs": [[56, 0, 0]]
    }, 
    {
      "op": "Concat", 
      "name": "stage1_2/concat", 
      "attrs": {
        "dim": "1", 
        "num_args": "2"
      }, 
      "inputs": [[41, 0, 0], [57, 0, 0]]
    }, 
    {
      "op": "null", 
      "name": "stage1_tb_weight", 
      "attrs": {
        "dilate": "(1, 1)", 
        "kernel": "(1, 1)", 
        "layout": "NCHW", 
        "no_bias": "True", 
        "num_filter": "128", 
        "num_group": "1", 
        "pad": "(0, 0)", 
        "stride": "(1, 1)"
      }, 
      "inputs": []
    }, 
    {
      "op": "Convolution", 
      "name": "stage1_tb", 
      "attrs": {
        "dilate": "(1, 1)", 
        "kernel": "(1, 1)", 
        "layout": "NCHW", 
        "no_bias": "True", 
        "num_filter": "128", 
        "num_group": "1", 
        "pad": "(0, 0)", 
        "stride": "(1, 1)"
      }, 
      "inputs": [[58, 0, 0], [59, 0, 0]]
    }, 
    {
      "op": "null", 
      "name": "stage1_tb/bn_gamma", 
      "attrs": {
        "axis": "1", 
        "eps": "0.0010000000475", 
        "fix_gamma": "False", 
        "momentum": "0.0", 
        "use_global_stats": "False"
      }, 
      "inputs": []
    }, 
    {
      "op": "null", 
      "name": "stage1_tb/bn_beta", 
      "attrs": {
        "axis": "1", 
        "eps": "0.0010000000475", 
        "fix_gamma": "False", 
        "momentum": "0.0", 
        "use_global_stats": "False"
      }, 
      "inputs": []
    }, 
    {
      "op": "null", 
      "name": "stage1_tb/bn_moving_mean", 
      "attrs": {
        "__init__": "[\"zero\", {}]", 
        "axis": "1", 
        "eps": "0.0010000000475", 
        "fix_gamma": "False", 
        "momentum": "0.0", 
        "use_global_stats": "False"
      }, 
      "inputs": []
    }, 
    {
      "op": "null", 
      "name": "stage1_tb/bn_moving_var", 
      "attrs": {
        "__init__": "[\"one\", {}]", 
        "axis": "1", 
        "eps": "0.0010000000475", 
        "fix_gamma": "False", 
        "momentum": "0.0", 
        "use_global_stats": "False"
      }, 
      "inputs": []
    }, 
    {
      "op": "BatchNorm", 
      "name": "stage1_tb/bn", 
      "attrs": {
        "axis": "1", 
        "eps": "0.0010000000475", 
        "fix_gamma": "False", 
        "momentum": "0.0", 
        "use_global_stats": "False"
      }, 
      "inputs": [[60, 0, 0], [61, 0, 0], [62, 0, 0], [63, 0, 1], [64, 0, 1]]
    }, 
    {
      "op": "Activation", 
      "name": "stage1_tb/relu", 
      "attrs": {"act_type": "relu"}, 
      "inputs": [[65, 0, 0]]
    }, 
    {
      "op": "Pooling", 
      "name": "stage1_tb/pool", 
      "attrs": {
        "global_pool": "False", 
        "kernel": "(2, 2)", 
        "pool_type": "avg", 
        "stride": "(2, 2)"
      }, 
      "inputs": [[66, 0, 0]]
    }, 
    {
      "op": "null", 
      "name": "stage2_1/branch2a_weight", 
      "attrs": {
        "dilate": "(1, 1)", 
        "kernel": "(1, 1)", 
        "layout": "NCHW", 
        "no_bias": "True", 
        "num_filter": "32", 
        "num_group": "1", 
        "pad": "(0, 0)", 
        "stride": "(1, 1)"
      }, 
      "inputs": []
    }, 
    {
      "op": "Convolution", 
      "name": "stage2_1/branch2a", 
      "attrs": {
        "dilate": "(1, 1)", 
        "kernel": "(1, 1)", 
        "layout": "NCHW", 
        "no_bias": "True", 
        "num_filter": "32", 
        "num_group": "1", 
        "pad": "(0, 0)", 
        "stride": "(1, 1)"
      }, 
      "inputs": [[67, 0, 0], [68, 0, 0]]
    }, 
    {
      "op": "null", 
      "name": "stage2_1/branch2a/bn_gamma", 
      "attrs": {
        "axis": "1", 
        "eps": "0.0010000000475", 
        "fix_gamma": "False", 
        "momentum": "0.0", 
        "use_global_stats": "False"
      }, 
      "inputs": []
    }, 
    {
      "op": "null", 
      "name": "stage2_1/branch2a/bn_beta", 
      "attrs": {
        "axis": "1", 
        "eps": "0.0010000000475", 
        "fix_gamma": "False", 
        "momentum": "0.0", 
        "use_global_stats": "False"
      }, 
      "inputs": []
    }, 
    {
      "op": "null", 
      "name": "stage2_1/branch2a/bn_moving_mean", 
      "attrs": {
        "__init__": "[\"zero\", {}]", 
        "axis": "1", 
        "eps": "0.0010000000475", 
        "fix_gamma": "False", 
        "momentum": "0.0", 
        "use_global_stats": "False"
      }, 
      "inputs": []
    }, 
    {
      "op": "null", 
      "name": "stage2_1/branch2a/bn_moving_var", 
      "attrs": {
        "__init__": "[\"one\", {}]", 
        "axis": "1", 
        "eps": "0.0010000000475", 
        "fix_gamma": "False", 
        "momentum": "0.0", 
        "use_global_stats": "False"
      }, 
      "inputs": []
    }, 
    {
      "op": "BatchNorm", 
      "name": "stage2_1/branch2a/bn", 
      "attrs": {
        "axis": "1", 
        "eps": "0.0010000000475", 
        "fix_gamma": "False", 
        "momentum": "0.0", 
        "use_global_stats": "False"
      }, 
      "inputs": [[69, 0, 0], [70, 0, 0], [71, 0, 0], [72, 0, 1], [73, 0, 1]]
    }, 
    {
      "op": "Activation", 
      "name": "stage2_1/branch2a/relu", 
      "attrs": {"act_type": "relu"}, 
      "inputs": [[74, 0, 0]]
    }, 
    {
      "op": "null", 
      "name": "stage2_1/branch2b_weight", 
      "attrs": {
        "dilate": "(1, 1)", 
        "kernel": "(3, 3)", 
        "layout": "NCHW", 
        "no_bias": "True", 
        "num_filter": "32", 
        "num_group": "1", 
        "pad": "(1, 1)", 
        "stride": "(1, 1)"
      }, 
      "inputs": []
    }, 
    {
      "op": "Convolution", 
      "name": "stage2_1/branch2b", 
      "attrs": {
        "dilate": "(1, 1)", 
        "kernel": "(3, 3)", 
        "layout": "NCHW", 
        "no_bias": "True", 
        "num_filter": "32", 
        "num_group": "1", 
        "pad": "(1, 1)", 
        "stride": "(1, 1)"
      }, 
      "inputs": [[75, 0, 0], [76, 0, 0]]
    }, 
    {
      "op": "null", 
      "name": "stage2_1/branch2b/bn_gamma", 
      "attrs": {
        "axis": "1", 
        "eps": "0.0010000000475", 
        "fix_gamma": "False", 
        "momentum": "0.0", 
        "use_global_stats": "False"
      }, 
      "inputs": []
    }, 
    {
      "op": "null", 
      "name": "stage2_1/branch2b/bn_beta", 
      "attrs": {
        "axis": "1", 
        "eps": "0.0010000000475", 
        "fix_gamma": "False", 
        "momentum": "0.0", 
        "use_global_stats": "False"
      }, 
      "inputs": []
    }, 
    {
      "op": "null", 
      "name": "stage2_1/branch2b/bn_moving_mean", 
      "attrs": {
        "__init__": "[\"zero\", {}]", 
        "axis": "1", 
        "eps": "0.0010000000475", 
        "fix_gamma": "False", 
        "momentum": "0.0", 
        "use_global_stats": "False"
      }, 
      "inputs": []
    }, 
    {
      "op": "null", 
      "name": "stage2_1/branch2b/bn_moving_var", 
      "attrs": {
        "__init__": "[\"one\", {}]", 
        "axis": "1", 
        "eps": "0.0010000000475", 
        "fix_gamma": "False", 
        "momentum": "0.0", 
        "use_global_stats": "False"
      }, 
      "inputs": []
    }, 
    {
      "op": "BatchNorm", 
      "name": "stage2_1/branch2b/bn", 
      "attrs": {
        "axis": "1", 
        "eps": "0.0010000000475", 
        "fix_gamma": "False", 
        "momentum": "0.0", 
        "use_global_stats": "False"
      }, 
      "inputs": [[77, 0, 0], [78, 0, 0], [79, 0, 0], [80, 0, 1], [81, 0, 1]]
    }, 
    {
      "op": "Activation", 
      "name": "stage2_1/branch2b/relu", 
      "attrs": {"act_type": "relu"}, 
      "inputs": [[82, 0, 0]]
    }, 
    {
      "op": "Concat", 
      "name": "stage2_1/concat", 
      "attrs": {
        "dim": "1", 
        "num_args": "2"
      }, 
      "inputs": [[67, 0, 0], [83, 0, 0]]
    }, 
    {
      "op": "null", 
      "name": "stage2_2/branch2a_weight", 
      "attrs": {
        "dilate": "(1, 1)", 
        "kernel": "(1, 1)", 
        "layout": "NCHW", 
        "no_bias": "True", 
        "num_filter": "32", 
        "num_group": "1", 
        "pad": "(0, 0)", 
        "stride": "(1, 1)"
      }, 
      "inputs": []
    }, 
    {
      "op": "Convolution", 
      "name": "stage2_2/branch2a", 
      "attrs": {
        "dilate": "(1, 1)", 
        "kernel": "(1, 1)", 
        "layout": "NCHW", 
        "no_bias": "True", 
        "num_filter": "32", 
        "num_group": "1", 
        "pad": "(0, 0)", 
        "stride": "(1, 1)"
      }, 
      "inputs": [[84, 0, 0], [85, 0, 0]]
    }, 
    {
      "op": "null", 
      "name": "stage2_2/branch2a/bn_gamma", 
      "attrs": {
        "axis": "1", 
        "eps": "0.0010000000475", 
        "fix_gamma": "False", 
        "momentum": "0.0", 
        "use_global_stats": "False"
      }, 
      "inputs": []
    }, 
    {
      "op": "null", 
      "name": "stage2_2/branch2a/bn_beta", 
      "attrs": {
        "axis": "1", 
        "eps": "0.0010000000475", 
        "fix_gamma": "False", 
        "momentum": "0.0", 
        "use_global_stats": "False"
      }, 
      "inputs": []
    }, 
    {
      "op": "null", 
      "name": "stage2_2/branch2a/bn_moving_mean", 
      "attrs": {
        "__init__": "[\"zero\", {}]", 
        "axis": "1", 
        "eps": "0.0010000000475", 
        "fix_gamma": "False", 
        "momentum": "0.0", 
        "use_global_stats": "False"
      }, 
      "inputs": []
    }, 
    {
      "op": "null", 
      "name": "stage2_2/branch2a/bn_moving_var", 
      "attrs": {
        "__init__": "[\"one\", {}]", 
        "axis": "1", 
        "eps": "0.0010000000475", 
        "fix_gamma": "False", 
        "momentum": "0.0", 
        "use_global_stats": "False"
      }, 
      "inputs": []
    }, 
    {
      "op": "BatchNorm", 
      "name": "stage2_2/branch2a/bn", 
      "attrs": {
        "axis": "1", 
        "eps": "0.0010000000475", 
        "fix_gamma": "False", 
        "momentum": "0.0", 
        "use_global_stats": "False"
      }, 
      "inputs": [[86, 0, 0], [87, 0, 0], [88, 0, 0], [89, 0, 1], [90, 0, 1]]
    }, 
    {
      "op": "Activation", 
      "name": "stage2_2/branch2a/relu", 
      "attrs": {"act_type": "relu"}, 
      "inputs": [[91, 0, 0]]
    }, 
    {
      "op": "null", 
      "name": "stage2_2/branch2b_weight", 
      "attrs": {
        "dilate": "(1, 1)", 
        "kernel": "(3, 3)", 
        "layout": "NCHW", 
        "no_bias": "True", 
        "num_filter": "32", 
        "num_group": "1", 
        "pad": "(1, 1)", 
        "stride": "(1, 1)"
      }, 
      "inputs": []
    }, 
    {
      "op": "Convolution", 
      "name": "stage2_2/branch2b", 
      "attrs": {
        "dilate": "(1, 1)", 
        "kernel": "(3, 3)", 
        "layout": "NCHW", 
        "no_bias": "True", 
        "num_filter": "32", 
        "num_group": "1", 
        "pad": "(1, 1)", 
        "stride": "(1, 1)"
      }, 
      "inputs": [[92, 0, 0], [93, 0, 0]]
    }, 
    {
      "op": "null", 
      "name": "stage2_2/branch2b/bn_gamma", 
      "attrs": {
        "axis": "1", 
        "eps": "0.0010000000475", 
        "fix_gamma": "False", 
        "momentum": "0.0", 
        "use_global_stats": "False"
      }, 
      "inputs": []
    }, 
    {
      "op": "null", 
      "name": "stage2_2/branch2b/bn_beta", 
      "attrs": {
        "axis": "1", 
        "eps": "0.0010000000475", 
        "fix_gamma": "False", 
        "momentum": "0.0", 
        "use_global_stats": "False"
      }, 
      "inputs": []
    }, 
    {
      "op": "null", 
      "name": "stage2_2/branch2b/bn_moving_mean", 
      "attrs": {
        "__init__": "[\"zero\", {}]", 
        "axis": "1", 
        "eps": "0.0010000000475", 
        "fix_gamma": "False", 
        "momentum": "0.0", 
        "use_global_stats": "False"
      }, 
      "inputs": []
    }, 
    {
      "op": "null", 
      "name": "stage2_2/branch2b/bn_moving_var", 
      "attrs": {
        "__init__": "[\"one\", {}]", 
        "axis": "1", 
        "eps": "0.0010000000475", 
        "fix_gamma": "False", 
        "momentum": "0.0", 
        "use_global_stats": "False"
      }, 
      "inputs": []
    }, 
    {
      "op": "BatchNorm", 
      "name": "stage2_2/branch2b/bn", 
      "attrs": {
        "axis": "1", 
        "eps": "0.0010000000475", 
        "fix_gamma": "False", 
        "momentum": "0.0", 
        "use_global_stats": "False"
      }, 
      "inputs": [[94, 0, 0], [95, 0, 0], [96, 0, 0], [97, 0, 1], [98, 0, 1]]
    }, 
    {
      "op": "Activation", 
      "name": "stage2_2/branch2b/relu", 
      "attrs": {"act_type": "relu"}, 
      "inputs": [[99, 0, 0]]
    }, 
    {
      "op": "Concat", 
      "name": "stage2_2/concat", 
      "attrs": {
        "dim": "1", 
        "num_args": "2"
      }, 
      "inputs": [[84, 0, 0], [100, 0, 0]]
    }, 
    {
      "op": "null", 
      "name": "stage2_3/branch2a_weight", 
      "attrs": {
        "dilate": "(1, 1)", 
        "kernel": "(1, 1)", 
        "layout": "NCHW", 
        "no_bias": "True", 
        "num_filter": "32", 
        "num_group": "1", 
        "pad": "(0, 0)", 
        "stride": "(1, 1)"
      }, 
      "inputs": []
    }, 
    {
      "op": "Convolution", 
      "name": "stage2_3/branch2a", 
      "attrs": {
        "dilate": "(1, 1)", 
        "kernel": "(1, 1)", 
        "layout": "NCHW", 
        "no_bias": "True", 
        "num_filter": "32", 
        "num_group": "1", 
        "pad": "(0, 0)", 
        "stride": "(1, 1)"
      }, 
      "inputs": [[101, 0, 0], [102, 0, 0]]
    }, 
    {
      "op": "null", 
      "name": "stage2_3/branch2a/bn_gamma", 
      "attrs": {
        "axis": "1", 
        "eps": "0.0010000000475", 
        "fix_gamma": "False", 
        "momentum": "0.0", 
        "use_global_stats": "False"
      }, 
      "inputs": []
    }, 
    {
      "op": "null", 
      "name": "stage2_3/branch2a/bn_beta", 
      "attrs": {
        "axis": "1", 
        "eps": "0.0010000000475", 
        "fix_gamma": "False", 
        "momentum": "0.0", 
        "use_global_stats": "False"
      }, 
      "inputs": []
    }, 
    {
      "op": "null", 
      "name": "stage2_3/branch2a/bn_moving_mean", 
      "attrs": {
        "__init__": "[\"zero\", {}]", 
        "axis": "1", 
        "eps": "0.0010000000475", 
        "fix_gamma": "False", 
        "momentum": "0.0", 
        "use_global_stats": "False"
      }, 
      "inputs": []
    }, 
    {
      "op": "null", 
      "name": "stage2_3/branch2a/bn_moving_var", 
      "attrs": {
        "__init__": "[\"one\", {}]", 
        "axis": "1", 
        "eps": "0.0010000000475", 
        "fix_gamma": "False", 
        "momentum": "0.0", 
        "use_global_stats": "False"
      }, 
      "inputs": []
    }, 
    {
      "op": "BatchNorm", 
      "name": "stage2_3/branch2a/bn", 
      "attrs": {
        "axis": "1", 
        "eps": "0.0010000000475", 
        "fix_gamma": "False", 
        "momentum": "0.0", 
        "use_global_stats": "False"
      }, 
      "inputs": [[103, 0, 0], [104, 0, 0], [105, 0, 0], [106, 0, 1], [107, 0, 1]]
    }, 
    {
      "op": "Activation", 
      "name": "stage2_3/branch2a/relu", 
      "attrs": {"act_type": "relu"}, 
      "inputs": [[108, 0, 0]]
    }, 
    {
      "op": "null", 
      "name": "stage2_3/branch2b_weight", 
      "attrs": {
        "dilate": "(1, 1)", 
        "kernel": "(3, 3)", 
        "layout": "NCHW", 
        "no_bias": "True", 
        "num_filter": "32", 
        "num_group": "1", 
        "pad": "(1, 1)", 
        "stride": "(1, 1)"
      }, 
      "inputs": []
    }, 
    {
      "op": "Convolution", 
      "name": "stage2_3/branch2b", 
      "attrs": {
        "dilate": "(1, 1)", 
        "kernel": "(3, 3)", 
        "layout": "NCHW", 
        "no_bias": "True", 
        "num_filter": "32", 
        "num_group": "1", 
        "pad": "(1, 1)", 
        "stride": "(1, 1)"
      }, 
      "inputs": [[109, 0, 0], [110, 0, 0]]
    }, 
    {
      "op": "null", 
      "name": "stage2_3/branch2b/bn_gamma", 
      "attrs": {
        "axis": "1", 
        "eps": "0.0010000000475", 
        "fix_gamma": "False", 
        "momentum": "0.0", 
        "use_global_stats": "False"
      }, 
      "inputs": []
    }, 
    {
      "op": "null", 
      "name": "stage2_3/branch2b/bn_beta", 
      "attrs": {
        "axis": "1", 
        "eps": "0.0010000000475", 
        "fix_gamma": "False", 
        "momentum": "0.0", 
        "use_global_stats": "False"
      }, 
      "inputs": []
    }, 
    {
      "op": "null", 
      "name": "stage2_3/branch2b/bn_moving_mean", 
      "attrs": {
        "__init__": "[\"zero\", {}]", 
        "axis": "1", 
        "eps": "0.0010000000475", 
        "fix_gamma": "False", 
        "momentum": "0.0", 
        "use_global_stats": "False"
      }, 
      "inputs": []
    }, 
    {
      "op": "null", 
      "name": "stage2_3/branch2b/bn_moving_var", 
      "attrs": {
        "__init__": "[\"one\", {}]", 
        "axis": "1", 
        "eps": "0.0010000000475", 
        "fix_gamma": "False", 
        "momentum": "0.0", 
        "use_global_stats": "False"
      }, 
      "inputs": []
    }, 
    {
      "op": "BatchNorm", 
      "name": "stage2_3/branch2b/bn", 
      "attrs": {
        "axis": "1", 
        "eps": "0.0010000000475", 
        "fix_gamma": "False", 
        "momentum": "0.0", 
        "use_global_stats": "False"
      }, 
      "inputs": [[111, 0, 0], [112, 0, 0], [113, 0, 0], [114, 0, 1], [115, 0, 1]]
    }, 
    {
      "op": "Activation", 
      "name": "stage2_3/branch2b/relu", 
      "attrs": {"act_type": "relu"}, 
      "inputs": [[116, 0, 0]]
    }, 
    {
      "op": "Concat", 
      "name": "stage2_3/concat", 
      "attrs": {
        "dim": "1", 
        "num_args": "2"
      }, 
      "inputs": [[101, 0, 0], [117, 0, 0]]
    }, 
    {
      "op": "null", 
      "name": "stage2_4/branch2a_weight", 
      "attrs": {
        "dilate": "(1, 1)", 
        "kernel": "(1, 1)", 
        "layout": "NCHW", 
        "no_bias": "True", 
        "num_filter": "32", 
        "num_group": "1", 
        "pad": "(0, 0)", 
        "stride": "(1, 1)"
      }, 
      "inputs": []
    }, 
    {
      "op": "Convolution", 
      "name": "stage2_4/branch2a", 
      "attrs": {
        "dilate": "(1, 1)", 
        "kernel": "(1, 1)", 
        "layout": "NCHW", 
        "no_bias": "True", 
        "num_filter": "32", 
        "num_group": "1", 
        "pad": "(0, 0)", 
        "stride": "(1, 1)"
      }, 
      "inputs": [[118, 0, 0], [119, 0, 0]]
    }, 
    {
      "op": "null", 
      "name": "stage2_4/branch2a/bn_gamma", 
      "attrs": {
        "axis": "1", 
        "eps": "0.0010000000475", 
        "fix_gamma": "False", 
        "momentum": "0.0", 
        "use_global_stats": "False"
      }, 
      "inputs": []
    }, 
    {
      "op": "null", 
      "name": "stage2_4/branch2a/bn_beta", 
      "attrs": {
        "axis": "1", 
        "eps": "0.0010000000475", 
        "fix_gamma": "False", 
        "momentum": "0.0", 
        "use_global_stats": "False"
      }, 
      "inputs": []
    }, 
    {
      "op": "null", 
      "name": "stage2_4/branch2a/bn_moving_mean", 
      "attrs": {
        "__init__": "[\"zero\", {}]", 
        "axis": "1", 
        "eps": "0.0010000000475", 
        "fix_gamma": "False", 
        "momentum": "0.0", 
        "use_global_stats": "False"
      }, 
      "inputs": []
    }, 
    {
      "op": "null", 
      "name": "stage2_4/branch2a/bn_moving_var", 
      "attrs": {
        "__init__": "[\"one\", {}]", 
        "axis": "1", 
        "eps": "0.0010000000475", 
        "fix_gamma": "False", 
        "momentum": "0.0", 
        "use_global_stats": "False"
      }, 
      "inputs": []
    }, 
    {
      "op": "BatchNorm", 
      "name": "stage2_4/branch2a/bn", 
      "attrs": {
        "axis": "1", 
        "eps": "0.0010000000475", 
        "fix_gamma": "False", 
        "momentum": "0.0", 
        "use_global_stats": "False"
      }, 
      "inputs": [[120, 0, 0], [121, 0, 0], [122, 0, 0], [123, 0, 1], [124, 0, 1]]
    }, 
    {
      "op": "Activation", 
      "name": "stage2_4/branch2a/relu", 
      "attrs": {"act_type": "relu"}, 
      "inputs": [[125, 0, 0]]
    }, 
    {
      "op": "null", 
      "name": "stage2_4/branch2b_weight", 
      "attrs": {
        "dilate": "(1, 1)", 
        "kernel": "(3, 3)", 
        "layout": "NCHW", 
        "no_bias": "True", 
        "num_filter": "32", 
        "num_group": "1", 
        "pad": "(1, 1)", 
        "stride": "(1, 1)"
      }, 
      "inputs": []
    }, 
    {
      "op": "Convolution", 
      "name": "stage2_4/branch2b", 
      "attrs": {
        "dilate": "(1, 1)", 
        "kernel": "(3, 3)", 
        "layout": "NCHW", 
        "no_bias": "True", 
        "num_filter": "32", 
        "num_group": "1", 
        "pad": "(1, 1)", 
        "stride": "(1, 1)"
      }, 
      "inputs": [[126, 0, 0], [127, 0, 0]]
    }, 
    {
      "op": "null", 
      "name": "stage2_4/branch2b/bn_gamma", 
      "attrs": {
        "axis": "1", 
        "eps": "0.0010000000475", 
        "fix_gamma": "False", 
        "momentum": "0.0", 
        "use_global_stats": "False"
      }, 
      "inputs": []
    }, 
    {
      "op": "null", 
      "name": "stage2_4/branch2b/bn_beta", 
      "attrs": {
        "axis": "1", 
        "eps": "0.0010000000475", 
        "fix_gamma": "False", 
        "momentum": "0.0", 
        "use_global_stats": "False"
      }, 
      "inputs": []
    }, 
    {
      "op": "null", 
      "name": "stage2_4/branch2b/bn_moving_mean", 
      "attrs": {
        "__init__": "[\"zero\", {}]", 
        "axis": "1", 
        "eps": "0.0010000000475", 
        "fix_gamma": "False", 
        "momentum": "0.0", 
        "use_global_stats": "False"
      }, 
      "inputs": []
    }, 
    {
      "op": "null", 
      "name": "stage2_4/branch2b/bn_moving_var", 
      "attrs": {
        "__init__": "[\"one\", {}]", 
        "axis": "1", 
        "eps": "0.0010000000475", 
        "fix_gamma": "False", 
        "momentum": "0.0", 
        "use_global_stats": "False"
      }, 
      "inputs": []
    }, 
    {
      "op": "BatchNorm", 
      "name": "stage2_4/branch2b/bn", 
      "attrs": {
        "axis": "1", 
        "eps": "0.0010000000475", 
        "fix_gamma": "False", 
        "momentum": "0.0", 
        "use_global_stats": "False"
      }, 
      "inputs": [[128, 0, 0], [129, 0, 0], [130, 0, 0], [131, 0, 1], [132, 0, 1]]
    }, 
    {
      "op": "Activation", 
      "name": "stage2_4/branch2b/relu", 
      "attrs": {"act_type": "relu"}, 
      "inputs": [[133, 0, 0]]
    }, 
    {
      "op": "Concat", 
      "name": "stage2_4/concat", 
      "attrs": {
        "dim": "1", 
        "num_args": "2"
      }, 
      "inputs": [[118, 0, 0], [134, 0, 0]]
    }, 
    {
      "op": "null", 
      "name": "stage2_tb_weight", 
      "attrs": {
        "dilate": "(1, 1)", 
        "kernel": "(1, 1)", 
        "layout": "NCHW", 
        "no_bias": "True", 
        "num_filter": "256", 
        "num_group": "1", 
        "pad": "(0, 0)", 
        "stride": "(1, 1)"
      }, 
      "inputs": []
    }, 
    {
      "op": "Convolution", 
      "name": "stage2_tb", 
      "attrs": {
        "dilate": "(1, 1)", 
        "kernel": "(1, 1)", 
        "layout": "NCHW", 
        "no_bias": "True", 
        "num_filter": "256", 
        "num_group": "1", 
        "pad": "(0, 0)", 
        "stride": "(1, 1)"
      }, 
      "inputs": [[135, 0, 0], [136, 0, 0]]
    }, 
    {
      "op": "null", 
      "name": "stage2_tb/bn_gamma", 
      "attrs": {
        "axis": "1", 
        "eps": "0.0010000000475", 
        "fix_gamma": "False", 
        "momentum": "0.0", 
        "use_global_stats": "False"
      }, 
      "inputs": []
    }, 
    {
      "op": "null", 
      "name": "stage2_tb/bn_beta", 
      "attrs": {
        "axis": "1", 
        "eps": "0.0010000000475", 
        "fix_gamma": "False", 
        "momentum": "0.0", 
        "use_global_stats": "False"
      }, 
      "inputs": []
    }, 
    {
      "op": "null", 
      "name": "stage2_tb/bn_moving_mean", 
      "attrs": {
        "__init__": "[\"zero\", {}]", 
        "axis": "1", 
        "eps": "0.0010000000475", 
        "fix_gamma": "False", 
        "momentum": "0.0", 
        "use_global_stats": "False"
      }, 
      "inputs": []
    }, 
    {
      "op": "null", 
      "name": "stage2_tb/bn_moving_var", 
      "attrs": {
        "__init__": "[\"one\", {}]", 
        "axis": "1", 
        "eps": "0.0010000000475", 
        "fix_gamma": "False", 
        "momentum": "0.0", 
        "use_global_stats": "False"
      }, 
      "inputs": []
    }, 
    {
      "op": "BatchNorm", 
      "name": "stage2_tb/bn", 
      "attrs": {
        "axis": "1", 
        "eps": "0.0010000000475", 
        "fix_gamma": "False", 
        "momentum": "0.0", 
        "use_global_stats": "False"
      }, 
      "inputs": [[137, 0, 0], [138, 0, 0], [139, 0, 0], [140, 0, 1], [141, 0, 1]]
    }, 
    {
      "op": "Activation", 
      "name": "stage2_tb/relu", 
      "attrs": {"act_type": "relu"}, 
      "inputs": [[142, 0, 0]]
    }, 
    {
      "op": "null", 
      "name": "stage4_tb_ext_pm2_weight", 
      "attrs": {
        "dilate": "(1, 1)", 
        "kernel": "(1, 1)", 
        "layout": "NCHW", 
        "no_bias": "True", 
        "num_filter": "256", 
        "num_group": "1", 
        "pad": "(0, 0)", 
        "stride": "(1, 1)"
      }, 
      "inputs": []
    }, 
    {
      "op": "Convolution", 
      "name": "stage4_tb_ext_pm2", 
      "attrs": {
        "dilate": "(1, 1)", 
        "kernel": "(1, 1)", 
        "layout": "NCHW", 
        "no_bias": "True", 
        "num_filter": "256", 
        "num_group": "1", 
        "pad": "(0, 0)", 
        "stride": "(1, 1)"
      }, 
      "inputs": [[143, 0, 0], [144, 0, 0]]
    }, 
    {
      "op": "null", 
      "name": "stage4_tb_ext_pm2/bn_gamma", 
      "attrs": {
        "axis": "1", 
        "eps": "0.0010000000475", 
        "fix_gamma": "False", 
        "momentum": "0.0", 
        "use_global_stats": "False"
      }, 
      "inputs": []
    }, 
    {
      "op": "null", 
      "name": "stage4_tb_ext_pm2/bn_beta", 
      "attrs": {
        "axis": "1", 
        "eps": "0.0010000000475", 
        "fix_gamma": "False", 
        "momentum": "0.0", 
        "use_global_stats": "False"
      }, 
      "inputs": []
    }, 
    {
      "op": "null", 
      "name": "stage4_tb_ext_pm2/bn_moving_mean", 
      "attrs": {
        "__init__": "[\"zero\", {}]", 
        "axis": "1", 
        "eps": "0.0010000000475", 
        "fix_gamma": "False", 
        "momentum": "0.0", 
        "use_global_stats": "False"
      }, 
      "inputs": []
    }, 
    {
      "op": "null", 
      "name": "stage4_tb_ext_pm2/bn_moving_var", 
      "attrs": {
        "__init__": "[\"one\", {}]", 
        "axis": "1", 
        "eps": "0.0010000000475", 
        "fix_gamma": "False", 
        "momentum": "0.0", 
        "use_global_stats": "False"
      }, 
      "inputs": []
    }, 
    {
      "op": "BatchNorm", 
      "name": "stage4_tb_ext_pm2/bn", 
      "attrs": {
        "axis": "1", 
        "eps": "0.0010000000475", 
        "fix_gamma": "False", 
        "momentum": "0.0", 
        "use_global_stats": "False"
      }, 
      "inputs": [[145, 0, 0], [146, 0, 0], [147, 0, 0], [148, 0, 1], [149, 0, 1]]
    }, 
    {
      "op": "Activation", 
      "name": "stage4_tb_ext_pm2/relu", 
      "attrs": {"act_type": "relu"}, 
      "inputs": [[150, 0, 0]]
    }, 
    {
      "op": "null", 
      "name": "stage4_tb_ext_pm2_b2a_weight", 
      "attrs": {
        "dilate": "(1, 1)", 
        "kernel": "(1, 1)", 
        "layout": "NCHW", 
        "no_bias": "True", 
        "num_filter": "128", 
        "num_group": "1", 
        "pad": "(0, 0)", 
        "stride": "(1, 1)"
      }, 
      "inputs": []
    }, 
    {
      "op": "Convolution", 
      "name": "stage4_tb_ext_pm2_b2a", 
      "attrs": {
        "dilate": "(1, 1)", 
        "kernel": "(1, 1)", 
        "layout": "NCHW", 
        "no_bias": "True", 
        "num_filter": "128", 
        "num_group": "1", 
        "pad": "(0, 0)", 
        "stride": "(1, 1)"
      }, 
      "inputs": [[143, 0, 0], [152, 0, 0]]
    }, 
    {
      "op": "null", 
      "name": "stage4_tb_ext_pm2_b2a/bn_gamma", 
      "attrs": {
        "axis": "1", 
        "eps": "0.0010000000475", 
        "fix_gamma": "False", 
        "momentum": "0.0", 
        "use_global_stats": "False"
      }, 
      "inputs": []
    }, 
    {
      "op": "null", 
      "name": "stage4_tb_ext_pm2_b2a/bn_beta", 
      "attrs": {
        "axis": "1", 
        "eps": "0.0010000000475", 
        "fix_gamma": "False", 
        "momentum": "0.0", 
        "use_global_stats": "False"
      }, 
      "inputs": []
    }, 
    {
      "op": "null", 
      "name": "stage4_tb_ext_pm2_b2a/bn_moving_mean", 
      "attrs": {
        "__init__": "[\"zero\", {}]", 
        "axis": "1", 
        "eps": "0.0010000000475", 
        "fix_gamma": "False", 
        "momentum": "0.0", 
        "use_global_stats": "False"
      }, 
      "inputs": []
    }, 
    {
      "op": "null", 
      "name": "stage4_tb_ext_pm2_b2a/bn_moving_var", 
      "attrs": {
        "__init__": "[\"one\", {}]", 
        "axis": "1", 
        "eps": "0.0010000000475", 
        "fix_gamma": "False", 
        "momentum": "0.0", 
        "use_global_stats": "False"
      }, 
      "inputs": []
    }, 
    {
      "op": "BatchNorm", 
      "name": "stage4_tb_ext_pm2_b2a/bn", 
      "attrs": {
        "axis": "1", 
        "eps": "0.0010000000475", 
        "fix_gamma": "False", 
        "momentum": "0.0", 
        "use_global_stats": "False"
      }, 
      "inputs": [[153, 0, 0], [154, 0, 0], [155, 0, 0], [156, 0, 1], [157, 0, 1]]
    }, 
    {
      "op": "Activation", 
      "name": "stage4_tb_ext_pm2_b2a/relu", 
      "attrs": {"act_type": "relu"}, 
      "inputs": [[158, 0, 0]]
    }, 
    {
      "op": "null", 
      "name": "stage4_tb_ext_pm2_b2b_weight", 
      "attrs": {
        "dilate": "(1, 1)", 
        "kernel": "(1, 1)", 
        "layout": "NCHW", 
        "no_bias": "True", 
        "num_filter": "128", 
        "num_group": "1", 
        "pad": "(0, 0)", 
        "stride": "(1, 1)"
      }, 
      "inputs": []
    }, 
    {
      "op": "Convolution", 
      "name": "stage4_tb_ext_pm2_b2b", 
      "attrs": {
        "dilate": "(1, 1)", 
        "kernel": "(1, 1)", 
        "layout": "NCHW", 
        "no_bias": "True", 
        "num_filter": "128", 
        "num_group": "1", 
        "pad": "(0, 0)", 
        "stride": "(1, 1)"
      }, 
      "inputs": [[159, 0, 0], [160, 0, 0]]
    }, 
    {
      "op": "null", 
      "name": "stage4_tb_ext_pm2_b2b/bn_gamma", 
      "attrs": {
        "axis": "1", 
        "eps": "0.0010000000475", 
        "fix_gamma": "False", 
        "momentum": "0.0", 
        "use_global_stats": "False"
      }, 
      "inputs": []
    }, 
    {
      "op": "null", 
      "name": "stage4_tb_ext_pm2_b2b/bn_beta", 
      "attrs": {
        "axis": "1", 
        "eps": "0.0010000000475", 
        "fix_gamma": "False", 
        "momentum": "0.0", 
        "use_global_stats": "False"
      }, 
      "inputs": []
    }, 
    {
      "op": "null", 
      "name": "stage4_tb_ext_pm2_b2b/bn_moving_mean", 
      "attrs": {
        "__init__": "[\"zero\", {}]", 
        "axis": "1", 
        "eps": "0.0010000000475", 
        "fix_gamma": "False", 
        "momentum": "0.0", 
        "use_global_stats": "False"
      }, 
      "inputs": []
    }, 
    {
      "op": "null", 
      "name": "stage4_tb_ext_pm2_b2b/bn_moving_var", 
      "attrs": {
        "__init__": "[\"one\", {}]", 
        "axis": "1", 
        "eps": "0.0010000000475", 
        "fix_gamma": "False", 
        "momentum": "0.0", 
        "use_global_stats": "False"
      }, 
      "inputs": []
    }, 
    {
      "op": "BatchNorm", 
      "name": "stage4_tb_ext_pm2_b2b/bn", 
      "attrs": {
        "axis": "1", 
        "eps": "0.0010000000475", 
        "fix_gamma": "False", 
        "momentum": "0.0", 
        "use_global_stats": "False"
      }, 
      "inputs": [[161, 0, 0], [162, 0, 0], [163, 0, 0], [164, 0, 1], [165, 0, 1]]
    }, 
    {
      "op": "Activation", 
      "name": "stage4_tb_ext_pm2_b2b/relu", 
      "attrs": {"act_type": "relu"}, 
      "inputs": [[166, 0, 0]]
    }, 
    {
      "op": "null", 
      "name": "stage4_tb_ext_pm2_b2c_weight", 
      "attrs": {
        "dilate": "(1, 1)", 
        "kernel": "(1, 1)", 
        "layout": "NCHW", 
        "no_bias": "True", 
        "num_filter": "256", 
        "num_group": "1", 
        "pad": "(0, 0)", 
        "stride": "(1, 1)"
      }, 
      "inputs": []
    }, 
    {
      "op": "Convolution", 
      "name": "stage4_tb_ext_pm2_b2c", 
      "attrs": {
        "dilate": "(1, 1)", 
        "kernel": "(1, 1)", 
        "layout": "NCHW", 
        "no_bias": "True", 
        "num_filter": "256", 
        "num_group": "1", 
        "pad": "(0, 0)", 
        "stride": "(1, 1)"
      }, 
      "inputs": [[167, 0, 0], [168, 0, 0]]
    }, 
    {
      "op": "null", 
      "name": "stage4_tb_ext_pm2_b2c/bn_gamma", 
      "attrs": {
        "axis": "1", 
        "eps": "0.0010000000475", 
        "fix_gamma": "False", 
        "momentum": "0.0", 
        "use_global_stats": "False"
      }, 
      "inputs": []
    }, 
    {
      "op": "null", 
      "name": "stage4_tb_ext_pm2_b2c/bn_beta", 
      "attrs": {
        "axis": "1", 
        "eps": "0.0010000000475", 
        "fix_gamma": "False", 
        "momentum": "0.0", 
        "use_global_stats": "False"
      }, 
      "inputs": []
    }, 
    {
      "op": "null", 
      "name": "stage4_tb_ext_pm2_b2c/bn_moving_mean", 
      "attrs": {
        "__init__": "[\"zero\", {}]", 
        "axis": "1", 
        "eps": "0.0010000000475", 
        "fix_gamma": "False", 
        "momentum": "0.0", 
        "use_global_stats": "False"
      }, 
      "inputs": []
    }, 
    {
      "op": "null", 
      "name": "stage4_tb_ext_pm2_b2c/bn_moving_var", 
      "attrs": {
        "__init__": "[\"one\", {}]", 
        "axis": "1", 
        "eps": "0.0010000000475", 
        "fix_gamma": "False", 
        "momentum": "0.0", 
        "use_global_stats": "False"
      }, 
      "inputs": []
    }, 
    {
      "op": "BatchNorm", 
      "name": "stage4_tb_ext_pm2_b2c/bn", 
      "attrs": {
        "axis": "1", 
        "eps": "0.0010000000475", 
        "fix_gamma": "False", 
        "momentum": "0.0", 
        "use_global_stats": "False"
      }, 
      "inputs": [[169, 0, 0], [170, 0, 0], [171, 0, 0], [172, 0, 1], [173, 0, 1]]
    }, 
    {
      "op": "Activation", 
      "name": "stage4_tb_ext_pm2_b2c/relu", 
      "attrs": {"act_type": "relu"}, 
      "inputs": [[174, 0, 0]]
    }, 
    {
      "op": "broadcast_add", 
      "name": "broadcast_add0", 
      "inputs": [[151, 0, 0], [175, 0, 0]]
    }, 
    {
      "op": "Activation", 
      "name": "stage4_tb_ext_pm2_res/relu", 
      "attrs": {"act_type": "relu"}, 
      "inputs": [[176, 0, 0]]
    }, 
    {
      "op": "null", 
      "name": "stage4_tb/ext/pm2/res/hyper/relu_weight", 
      "attrs": {
        "dilate": "(1, 1)", 
        "kernel": "(1, 1)", 
        "layout": "NCHW", 
        "no_bias": "True", 
        "num_filter": "256", 
        "num_group": "1", 
        "pad": "(0, 0)", 
        "stride": "(1, 1)"
      }, 
      "inputs": []
    }, 
    {
      "op": "Convolution", 
      "name": "stage4_tb/ext/pm2/res/hyper/relu", 
      "attrs": {
        "dilate": "(1, 1)", 
        "kernel": "(1, 1)", 
        "layout": "NCHW", 
        "no_bias": "True", 
        "num_filter": "256", 
        "num_group": "1", 
        "pad": "(0, 0)", 
        "stride": "(1, 1)"
      }, 
      "inputs": [[177, 0, 0], [178, 0, 0]]
    }, 
    {
      "op": "null", 
      "name": "stage4_tb/ext/pm2/res/hyper/relu/bn_gamma", 
      "attrs": {
        "axis": "1", 
        "eps": "0.0010000000475", 
        "fix_gamma": "False", 
        "momentum": "0.0", 
        "use_global_stats": "False"
      }, 
      "inputs": []
    }, 
    {
      "op": "null", 
      "name": "stage4_tb/ext/pm2/res/hyper/relu/bn_beta", 
      "attrs": {
        "axis": "1", 
        "eps": "0.0010000000475", 
        "fix_gamma": "False", 
        "momentum": "0.0", 
        "use_global_stats": "False"
      }, 
      "inputs": []
    }, 
    {
      "op": "null", 
      "name": "stage4_tb/ext/pm2/res/hyper/relu/bn_moving_mean", 
      "attrs": {
        "__init__": "[\"zero\", {}]", 
        "axis": "1", 
        "eps": "0.0010000000475", 
        "fix_gamma": "False", 
        "momentum": "0.0", 
        "use_global_stats": "False"
      }, 
      "inputs": []
    }, 
    {
      "op": "null", 
      "name": "stage4_tb/ext/pm2/res/hyper/relu/bn_moving_var", 
      "attrs": {
        "__init__": "[\"one\", {}]", 
        "axis": "1", 
        "eps": "0.0010000000475", 
        "fix_gamma": "False", 
        "momentum": "0.0", 
        "use_global_stats": "False"
      }, 
      "inputs": []
    }, 
    {
      "op": "BatchNorm", 
      "name": "stage4_tb/ext/pm2/res/hyper/relu/bn", 
      "attrs": {
        "axis": "1", 
        "eps": "0.0010000000475", 
        "fix_gamma": "False", 
        "momentum": "0.0", 
        "use_global_stats": "False"
      }, 
      "inputs": [[179, 0, 0], [180, 0, 0], [181, 0, 0], [182, 0, 1], [183, 0, 1]]
    }, 
    {
      "op": "Activation", 
      "name": "stage4_tb/ext/pm2/res/hyper/relu/relu", 
      "attrs": {"act_type": "relu"}, 
      "inputs": [[184, 0, 0]]
    }, 
    {
      "op": "Pooling", 
      "name": "stage2_tb/pool", 
      "attrs": {
        "global_pool": "False", 
        "kernel": "(2, 2)", 
        "pool_type": "avg", 
        "stride": "(2, 2)"
      }, 
      "inputs": [[143, 0, 0]]
    }, 
    {
      "op": "null", 
      "name": "stage3_1/branch2a_weight", 
      "attrs": {
        "dilate": "(1, 1)", 
        "kernel": "(1, 1)", 
        "layout": "NCHW", 
        "no_bias": "True", 
        "num_filter": "64", 
        "num_group": "1", 
        "pad": "(0, 0)", 
        "stride": "(1, 1)"
      }, 
      "inputs": []
    }, 
    {
      "op": "Convolution", 
      "name": "stage3_1/branch2a", 
      "attrs": {
        "dilate": "(1, 1)", 
        "kernel": "(1, 1)", 
        "layout": "NCHW", 
        "no_bias": "True", 
        "num_filter": "64", 
        "num_group": "1", 
        "pad": "(0, 0)", 
        "stride": "(1, 1)"
      }, 
      "inputs": [[186, 0, 0], [187, 0, 0]]
    }, 
    {
      "op": "null", 
      "name": "stage3_1/branch2a/bn_gamma", 
      "attrs": {
        "axis": "1", 
        "eps": "0.0010000000475", 
        "fix_gamma": "False", 
        "momentum": "0.0", 
        "use_global_stats": "False"
      }, 
      "inputs": []
    }, 
    {
      "op": "null", 
      "name": "stage3_1/branch2a/bn_beta", 
      "attrs": {
        "axis": "1", 
        "eps": "0.0010000000475", 
        "fix_gamma": "False", 
        "momentum": "0.0", 
        "use_global_stats": "False"
      }, 
      "inputs": []
    }, 
    {
      "op": "null", 
      "name": "stage3_1/branch2a/bn_moving_mean", 
      "attrs": {
        "__init__": "[\"zero\", {}]", 
        "axis": "1", 
        "eps": "0.0010000000475", 
        "fix_gamma": "False", 
        "momentum": "0.0", 
        "use_global_stats": "False"
      }, 
      "inputs": []
    }, 
    {
      "op": "null", 
      "name": "stage3_1/branch2a/bn_moving_var", 
      "attrs": {
        "__init__": "[\"one\", {}]", 
        "axis": "1", 
        "eps": "0.0010000000475", 
        "fix_gamma": "False", 
        "momentum": "0.0", 
        "use_global_stats": "False"
      }, 
      "inputs": []
    }, 
    {
      "op": "BatchNorm", 
      "name": "stage3_1/branch2a/bn", 
      "attrs": {
        "axis": "1", 
        "eps": "0.0010000000475", 
        "fix_gamma": "False", 
        "momentum": "0.0", 
        "use_global_stats": "False"
      }, 
      "inputs": [[188, 0, 0], [189, 0, 0], [190, 0, 0], [191, 0, 1], [192, 0, 1]]
    }, 
    {
      "op": "Activation", 
      "name": "stage3_1/branch2a/relu", 
      "attrs": {"act_type": "relu"}, 
      "inputs": [[193, 0, 0]]
    }, 
    {
      "op": "null", 
      "name": "stage3_1/branch2b_weight", 
      "attrs": {
        "dilate": "(1, 1)", 
        "kernel": "(3, 3)", 
        "layout": "NCHW", 
        "no_bias": "True", 
        "num_filter": "32", 
        "num_group": "1", 
        "pad": "(1, 1)", 
        "stride": "(1, 1)"
      }, 
      "inputs": []
    }, 
    {
      "op": "Convolution", 
      "name": "stage3_1/branch2b", 
      "attrs": {
        "dilate": "(1, 1)", 
        "kernel": "(3, 3)", 
        "layout": "NCHW", 
        "no_bias": "True", 
        "num_filter": "32", 
        "num_group": "1", 
        "pad": "(1, 1)", 
        "stride": "(1, 1)"
      }, 
      "inputs": [[194, 0, 0], [195, 0, 0]]
    }, 
    {
      "op": "null", 
      "name": "stage3_1/branch2b/bn_gamma", 
      "attrs": {
        "axis": "1", 
        "eps": "0.0010000000475", 
        "fix_gamma": "False", 
        "momentum": "0.0", 
        "use_global_stats": "False"
      }, 
      "inputs": []
    }, 
    {
      "op": "null", 
      "name": "stage3_1/branch2b/bn_beta", 
      "attrs": {
        "axis": "1", 
        "eps": "0.0010000000475", 
        "fix_gamma": "False", 
        "momentum": "0.0", 
        "use_global_stats": "False"
      }, 
      "inputs": []
    }, 
    {
      "op": "null", 
      "name": "stage3_1/branch2b/bn_moving_mean", 
      "attrs": {
        "__init__": "[\"zero\", {}]", 
        "axis": "1", 
        "eps": "0.0010000000475", 
        "fix_gamma": "False", 
        "momentum": "0.0", 
        "use_global_stats": "False"
      }, 
      "inputs": []
    }, 
    {
      "op": "null", 
      "name": "stage3_1/branch2b/bn_moving_var", 
      "attrs": {
        "__init__": "[\"one\", {}]", 
        "axis": "1", 
        "eps": "0.0010000000475", 
        "fix_gamma": "False", 
        "momentum": "0.0", 
        "use_global_stats": "False"
      }, 
      "inputs": []
    }, 
    {
      "op": "BatchNorm", 
      "name": "stage3_1/branch2b/bn", 
      "attrs": {
        "axis": "1", 
        "eps": "0.0010000000475", 
        "fix_gamma": "False", 
        "momentum": "0.0", 
        "use_global_stats": "False"
      }, 
      "inputs": [[196, 0, 0], [197, 0, 0], [198, 0, 0], [199, 0, 1], [200, 0, 1]]
    }, 
    {
      "op": "Activation", 
      "name": "stage3_1/branch2b/relu", 
      "attrs": {"act_type": "relu"}, 
      "inputs": [[201, 0, 0]]
    }, 
    {
      "op": "Concat", 
      "name": "stage3_1/concat", 
      "attrs": {
        "dim": "1", 
        "num_args": "2"
      }, 
      "inputs": [[186, 0, 0], [202, 0, 0]]
    }, 
    {
      "op": "null", 
      "name": "stage3_2/branch2a_weight", 
      "attrs": {
        "dilate": "(1, 1)", 
        "kernel": "(1, 1)", 
        "layout": "NCHW", 
        "no_bias": "True", 
        "num_filter": "64", 
        "num_group": "1", 
        "pad": "(0, 0)", 
        "stride": "(1, 1)"
      }, 
      "inputs": []
    }, 
    {
      "op": "Convolution", 
      "name": "stage3_2/branch2a", 
      "attrs": {
        "dilate": "(1, 1)", 
        "kernel": "(1, 1)", 
        "layout": "NCHW", 
        "no_bias": "True", 
        "num_filter": "64", 
        "num_group": "1", 
        "pad": "(0, 0)", 
        "stride": "(1, 1)"
      }, 
      "inputs": [[203, 0, 0], [204, 0, 0]]
    }, 
    {
      "op": "null", 
      "name": "stage3_2/branch2a/bn_gamma", 
      "attrs": {
        "axis": "1", 
        "eps": "0.0010000000475", 
        "fix_gamma": "False", 
        "momentum": "0.0", 
        "use_global_stats": "False"
      }, 
      "inputs": []
    }, 
    {
      "op": "null", 
      "name": "stage3_2/branch2a/bn_beta", 
      "attrs": {
        "axis": "1", 
        "eps": "0.0010000000475", 
        "fix_gamma": "False", 
        "momentum": "0.0", 
        "use_global_stats": "False"
      }, 
      "inputs": []
    }, 
    {
      "op": "null", 
      "name": "stage3_2/branch2a/bn_moving_mean", 
      "attrs": {
        "__init__": "[\"zero\", {}]", 
        "axis": "1", 
        "eps": "0.0010000000475", 
        "fix_gamma": "False", 
        "momentum": "0.0", 
        "use_global_stats": "False"
      }, 
      "inputs": []
    }, 
    {
      "op": "null", 
      "name": "stage3_2/branch2a/bn_moving_var", 
      "attrs": {
        "__init__": "[\"one\", {}]", 
        "axis": "1", 
        "eps": "0.0010000000475", 
        "fix_gamma": "False", 
        "momentum": "0.0", 
        "use_global_stats": "False"
      }, 
      "inputs": []
    }, 
    {
      "op": "BatchNorm", 
      "name": "stage3_2/branch2a/bn", 
      "attrs": {
        "axis": "1", 
        "eps": "0.0010000000475", 
        "fix_gamma": "False", 
        "momentum": "0.0", 
        "use_global_stats": "False"
      }, 
      "inputs": [[205, 0, 0], [206, 0, 0], [207, 0, 0], [208, 0, 1], [209, 0, 1]]
    }, 
    {
      "op": "Activation", 
      "name": "stage3_2/branch2a/relu", 
      "attrs": {"act_type": "relu"}, 
      "inputs": [[210, 0, 0]]
    }, 
    {
      "op": "null", 
      "name": "stage3_2/branch2b_weight", 
      "attrs": {
        "dilate": "(1, 1)", 
        "kernel": "(3, 3)", 
        "layout": "NCHW", 
        "no_bias": "True", 
        "num_filter": "32", 
        "num_group": "1", 
        "pad": "(1, 1)", 
        "stride": "(1, 1)"
      }, 
      "inputs": []
    }, 
    {
      "op": "Convolution", 
      "name": "stage3_2/branch2b", 
      "attrs": {
        "dilate": "(1, 1)", 
        "kernel": "(3, 3)", 
        "layout": "NCHW", 
        "no_bias": "True", 
        "num_filter": "32", 
        "num_group": "1", 
        "pad": "(1, 1)", 
        "stride": "(1, 1)"
      }, 
      "inputs": [[211, 0, 0], [212, 0, 0]]
    }, 
    {
      "op": "null", 
      "name": "stage3_2/branch2b/bn_gamma", 
      "attrs": {
        "axis": "1", 
        "eps": "0.0010000000475", 
        "fix_gamma": "False", 
        "momentum": "0.0", 
        "use_global_stats": "False"
      }, 
      "inputs": []
    }, 
    {
      "op": "null", 
      "name": "stage3_2/branch2b/bn_beta", 
      "attrs": {
        "axis": "1", 
        "eps": "0.0010000000475", 
        "fix_gamma": "False", 
        "momentum": "0.0", 
        "use_global_stats": "False"
      }, 
      "inputs": []
    }, 
    {
      "op": "null", 
      "name": "stage3_2/branch2b/bn_moving_mean", 
      "attrs": {
        "__init__": "[\"zero\", {}]", 
        "axis": "1", 
        "eps": "0.0010000000475", 
        "fix_gamma": "False", 
        "momentum": "0.0", 
        "use_global_stats": "False"
      }, 
      "inputs": []
    }, 
    {
      "op": "null", 
      "name": "stage3_2/branch2b/bn_moving_var", 
      "attrs": {
        "__init__": "[\"one\", {}]", 
        "axis": "1", 
        "eps": "0.0010000000475", 
        "fix_gamma": "False", 
        "momentum": "0.0", 
        "use_global_stats": "False"
      }, 
      "inputs": []
    }, 
    {
      "op": "BatchNorm", 
      "name": "stage3_2/branch2b/bn", 
      "attrs": {
        "axis": "1", 
        "eps": "0.0010000000475", 
        "fix_gamma": "False", 
        "momentum": "0.0", 
        "use_global_stats": "False"
      }, 
      "inputs": [[213, 0, 0], [214, 0, 0], [215, 0, 0], [216, 0, 1], [217, 0, 1]]
    }, 
    {
      "op": "Activation", 
      "name": "stage3_2/branch2b/relu", 
      "attrs": {"act_type": "relu"}, 
      "inputs": [[218, 0, 0]]
    }, 
    {
      "op": "Concat", 
      "name": "stage3_2/concat", 
      "attrs": {
        "dim": "1", 
        "num_args": "2"
      }, 
      "inputs": [[203, 0, 0], [219, 0, 0]]
    }, 
    {
      "op": "null", 
      "name": "stage3_3/branch2a_weight", 
      "attrs": {
        "dilate": "(1, 1)", 
        "kernel": "(1, 1)", 
        "layout": "NCHW", 
        "no_bias": "True", 
        "num_filter": "64", 
        "num_group": "1", 
        "pad": "(0, 0)", 
        "stride": "(1, 1)"
      }, 
      "inputs": []
    }, 
    {
      "op": "Convolution", 
      "name": "stage3_3/branch2a", 
      "attrs": {
        "dilate": "(1, 1)", 
        "kernel": "(1, 1)", 
        "layout": "NCHW", 
        "no_bias": "True", 
        "num_filter": "64", 
        "num_group": "1", 
        "pad": "(0, 0)", 
        "stride": "(1, 1)"
      }, 
      "inputs": [[220, 0, 0], [221, 0, 0]]
    }, 
    {
      "op": "null", 
      "name": "stage3_3/branch2a/bn_gamma", 
      "attrs": {
        "axis": "1", 
        "eps": "0.0010000000475", 
        "fix_gamma": "False", 
        "momentum": "0.0", 
        "use_global_stats": "False"
      }, 
      "inputs": []
    }, 
    {
      "op": "null", 
      "name": "stage3_3/branch2a/bn_beta", 
      "attrs": {
        "axis": "1", 
        "eps": "0.0010000000475", 
        "fix_gamma": "False", 
        "momentum": "0.0", 
        "use_global_stats": "False"
      }, 
      "inputs": []
    }, 
    {
      "op": "null", 
      "name": "stage3_3/branch2a/bn_moving_mean", 
      "attrs": {
        "__init__": "[\"zero\", {}]", 
        "axis": "1", 
        "eps": "0.0010000000475", 
        "fix_gamma": "False", 
        "momentum": "0.0", 
        "use_global_stats": "False"
      }, 
      "inputs": []
    }, 
    {
      "op": "null", 
      "name": "stage3_3/branch2a/bn_moving_var", 
      "attrs": {
        "__init__": "[\"one\", {}]", 
        "axis": "1", 
        "eps": "0.0010000000475", 
        "fix_gamma": "False", 
        "momentum": "0.0", 
        "use_global_stats": "False"
      }, 
      "inputs": []
    }, 
    {
      "op": "BatchNorm", 
      "name": "stage3_3/branch2a/bn", 
      "attrs": {
        "axis": "1", 
        "eps": "0.0010000000475", 
        "fix_gamma": "False", 
        "momentum": "0.0", 
        "use_global_stats": "False"
      }, 
      "inputs": [[222, 0, 0], [223, 0, 0], [224, 0, 0], [225, 0, 1], [226, 0, 1]]
    }, 
    {
      "op": "Activation", 
      "name": "stage3_3/branch2a/relu", 
      "attrs": {"act_type": "relu"}, 
      "inputs": [[227, 0, 0]]
    }, 
    {
      "op": "null", 
      "name": "stage3_3/branch2b_weight", 
      "attrs": {
        "dilate": "(1, 1)", 
        "kernel": "(3, 3)", 
        "layout": "NCHW", 
        "no_bias": "True", 
        "num_filter": "32", 
        "num_group": "1", 
        "pad": "(1, 1)", 
        "stride": "(1, 1)"
      }, 
      "inputs": []
    }, 
    {
      "op": "Convolution", 
      "name": "stage3_3/branch2b", 
      "attrs": {
        "dilate": "(1, 1)", 
        "kernel": "(3, 3)", 
        "layout": "NCHW", 
        "no_bias": "True", 
        "num_filter": "32", 
        "num_group": "1", 
        "pad": "(1, 1)", 
        "stride": "(1, 1)"
      }, 
      "inputs": [[228, 0, 0], [229, 0, 0]]
    }, 
    {
      "op": "null", 
      "name": "stage3_3/branch2b/bn_gamma", 
      "attrs": {
        "axis": "1", 
        "eps": "0.0010000000475", 
        "fix_gamma": "False", 
        "momentum": "0.0", 
        "use_global_stats": "False"
      }, 
      "inputs": []
    }, 
    {
      "op": "null", 
      "name": "stage3_3/branch2b/bn_beta", 
      "attrs": {
        "axis": "1", 
        "eps": "0.0010000000475", 
        "fix_gamma": "False", 
        "momentum": "0.0", 
        "use_global_stats": "False"
      }, 
      "inputs": []
    }, 
    {
      "op": "null", 
      "name": "stage3_3/branch2b/bn_moving_mean", 
      "attrs": {
        "__init__": "[\"zero\", {}]", 
        "axis": "1", 
        "eps": "0.0010000000475", 
        "fix_gamma": "False", 
        "momentum": "0.0", 
        "use_global_stats": "False"
      }, 
      "inputs": []
    }, 
    {
      "op": "null", 
      "name": "stage3_3/branch2b/bn_moving_var", 
      "attrs": {
        "__init__": "[\"one\", {}]", 
        "axis": "1", 
        "eps": "0.0010000000475", 
        "fix_gamma": "False", 
        "momentum": "0.0", 
        "use_global_stats": "False"
      }, 
      "inputs": []
    }, 
    {
      "op": "BatchNorm", 
      "name": "stage3_3/branch2b/bn", 
      "attrs": {
        "axis": "1", 
        "eps": "0.0010000000475", 
        "fix_gamma": "False", 
        "momentum": "0.0", 
        "use_global_stats": "False"
      }, 
      "inputs": [[230, 0, 0], [231, 0, 0], [232, 0, 0], [233, 0, 1], [234, 0, 1]]
    }, 
    {
      "op": "Activation", 
      "name": "stage3_3/branch2b/relu", 
      "attrs": {"act_type": "relu"}, 
      "inputs": [[235, 0, 0]]
    }, 
    {
      "op": "Concat", 
      "name": "stage3_3/concat", 
      "attrs": {
        "dim": "1", 
        "num_args": "2"
      }, 
      "inputs": [[220, 0, 0], [236, 0, 0]]
    }, 
    {
      "op": "null", 
      "name": "stage3_4/branch2a_weight", 
      "attrs": {
        "dilate": "(1, 1)", 
        "kernel": "(1, 1)", 
        "layout": "NCHW", 
        "no_bias": "True", 
        "num_filter": "64", 
        "num_group": "1", 
        "pad": "(0, 0)", 
        "stride": "(1, 1)"
      }, 
      "inputs": []
    }, 
    {
      "op": "Convolution", 
      "name": "stage3_4/branch2a", 
      "attrs": {
        "dilate": "(1, 1)", 
        "kernel": "(1, 1)", 
        "layout": "NCHW", 
        "no_bias": "True", 
        "num_filter": "64", 
        "num_group": "1", 
        "pad": "(0, 0)", 
        "stride": "(1, 1)"
      }, 
      "inputs": [[237, 0, 0], [238, 0, 0]]
    }, 
    {
      "op": "null", 
      "name": "stage3_4/branch2a/bn_gamma", 
      "attrs": {
        "axis": "1", 
        "eps": "0.0010000000475", 
        "fix_gamma": "False", 
        "momentum": "0.0", 
        "use_global_stats": "False"
      }, 
      "inputs": []
    }, 
    {
      "op": "null", 
      "name": "stage3_4/branch2a/bn_beta", 
      "attrs": {
        "axis": "1", 
        "eps": "0.0010000000475", 
        "fix_gamma": "False", 
        "momentum": "0.0", 
        "use_global_stats": "False"
      }, 
      "inputs": []
    }, 
    {
      "op": "null", 
      "name": "stage3_4/branch2a/bn_moving_mean", 
      "attrs": {
        "__init__": "[\"zero\", {}]", 
        "axis": "1", 
        "eps": "0.0010000000475", 
        "fix_gamma": "False", 
        "momentum": "0.0", 
        "use_global_stats": "False"
      }, 
      "inputs": []
    }, 
    {
      "op": "null", 
      "name": "stage3_4/branch2a/bn_moving_var", 
      "attrs": {
        "__init__": "[\"one\", {}]", 
        "axis": "1", 
        "eps": "0.0010000000475", 
        "fix_gamma": "False", 
        "momentum": "0.0", 
        "use_global_stats": "False"
      }, 
      "inputs": []
    }, 
    {
      "op": "BatchNorm", 
      "name": "stage3_4/branch2a/bn", 
      "attrs": {
        "axis": "1", 
        "eps": "0.0010000000475", 
        "fix_gamma": "False", 
        "momentum": "0.0", 
        "use_global_stats": "False"
      }, 
      "inputs": [[239, 0, 0], [240, 0, 0], [241, 0, 0], [242, 0, 1], [243, 0, 1]]
    }, 
    {
      "op": "Activation", 
      "name": "stage3_4/branch2a/relu", 
      "attrs": {"act_type": "relu"}, 
      "inputs": [[244, 0, 0]]
    }, 
    {
      "op": "null", 
      "name": "stage3_4/branch2b_weight", 
      "attrs": {
        "dilate": "(1, 1)", 
        "kernel": "(3, 3)", 
        "layout": "NCHW", 
        "no_bias": "True", 
        "num_filter": "32", 
        "num_group": "1", 
        "pad": "(1, 1)", 
        "stride": "(1, 1)"
      }, 
      "inputs": []
    }, 
    {
      "op": "Convolution", 
      "name": "stage3_4/branch2b", 
      "attrs": {
        "dilate": "(1, 1)", 
        "kernel": "(3, 3)", 
        "layout": "NCHW", 
        "no_bias": "True", 
        "num_filter": "32", 
        "num_group": "1", 
        "pad": "(1, 1)", 
        "stride": "(1, 1)"
      }, 
      "inputs": [[245, 0, 0], [246, 0, 0]]
    }, 
    {
      "op": "null", 
      "name": "stage3_4/branch2b/bn_gamma", 
      "attrs": {
        "axis": "1", 
        "eps": "0.0010000000475", 
        "fix_gamma": "False", 
        "momentum": "0.0", 
        "use_global_stats": "False"
      }, 
      "inputs": []
    }, 
    {
      "op": "null", 
      "name": "stage3_4/branch2b/bn_beta", 
      "attrs": {
        "axis": "1", 
        "eps": "0.0010000000475", 
        "fix_gamma": "False", 
        "momentum": "0.0", 
        "use_global_stats": "False"
      }, 
      "inputs": []
    }, 
    {
      "op": "null", 
      "name": "stage3_4/branch2b/bn_moving_mean", 
      "attrs": {
        "__init__": "[\"zero\", {}]", 
        "axis": "1", 
        "eps": "0.0010000000475", 
        "fix_gamma": "False", 
        "momentum": "0.0", 
        "use_global_stats": "False"
      }, 
      "inputs": []
    }, 
    {
      "op": "null", 
      "name": "stage3_4/branch2b/bn_moving_var", 
      "attrs": {
        "__init__": "[\"one\", {}]", 
        "axis": "1", 
        "eps": "0.0010000000475", 
        "fix_gamma": "False", 
        "momentum": "0.0", 
        "use_global_stats": "False"
      }, 
      "inputs": []
    }, 
    {
      "op": "BatchNorm", 
      "name": "stage3_4/branch2b/bn", 
      "attrs": {
        "axis": "1", 
        "eps": "0.0010000000475", 
        "fix_gamma": "False", 
        "momentum": "0.0", 
        "use_global_stats": "False"
      }, 
      "inputs": [[247, 0, 0], [248, 0, 0], [249, 0, 0], [250, 0, 1], [251, 0, 1]]
    }, 
    {
      "op": "Activation", 
      "name": "stage3_4/branch2b/relu", 
      "attrs": {"act_type": "relu"}, 
      "inputs": [[252, 0, 0]]
    }, 
    {
      "op": "Concat", 
      "name": "stage3_4/concat", 
      "attrs": {
        "dim": "1", 
        "num_args": "2"
      }, 
      "inputs": [[237, 0, 0], [253, 0, 0]]
    }, 
    {
      "op": "null", 
      "name": "stage3_tb_weight", 
      "attrs": {
        "dilate": "(1, 1)", 
        "kernel": "(1, 1)", 
        "layout": "NCHW", 
        "no_bias": "True", 
        "num_filter": "448", 
        "num_group": "1", 
        "pad": "(0, 0)", 
        "stride": "(1, 1)"
      }, 
      "inputs": []
    }, 
    {
      "op": "Convolution", 
      "name": "stage3_tb", 
      "attrs": {
        "dilate": "(1, 1)", 
        "kernel": "(1, 1)", 
        "layout": "NCHW", 
        "no_bias": "True", 
        "num_filter": "448", 
        "num_group": "1", 
        "pad": "(0, 0)", 
        "stride": "(1, 1)"
      }, 
      "inputs": [[254, 0, 0], [255, 0, 0]]
    }, 
    {
      "op": "null", 
      "name": "stage3_tb/bn_gamma", 
      "attrs": {
        "axis": "1", 
        "eps": "0.0010000000475", 
        "fix_gamma": "False", 
        "momentum": "0.0", 
        "use_global_stats": "False"
      }, 
      "inputs": []
    }, 
    {
      "op": "null", 
      "name": "stage3_tb/bn_beta", 
      "attrs": {
        "axis": "1", 
        "eps": "0.0010000000475", 
        "fix_gamma": "False", 
        "momentum": "0.0", 
        "use_global_stats": "False"
      }, 
      "inputs": []
    }, 
    {
      "op": "null", 
      "name": "stage3_tb/bn_moving_mean", 
      "attrs": {
        "__init__": "[\"zero\", {}]", 
        "axis": "1", 
        "eps": "0.0010000000475", 
        "fix_gamma": "False", 
        "momentum": "0.0", 
        "use_global_stats": "False"
      }, 
      "inputs": []
    }, 
    {
      "op": "null", 
      "name": "stage3_tb/bn_moving_var", 
      "attrs": {
        "__init__": "[\"one\", {}]", 
        "axis": "1", 
        "eps": "0.0010000000475", 
        "fix_gamma": "False", 
        "momentum": "0.0", 
        "use_global_stats": "False"
      }, 
      "inputs": []
    }, 
    {
      "op": "BatchNorm", 
      "name": "stage3_tb/bn", 
      "attrs": {
        "axis": "1", 
        "eps": "0.0010000000475", 
        "fix_gamma": "False", 
        "momentum": "0.0", 
        "use_global_stats": "False"
      }, 
      "inputs": [[256, 0, 0], [257, 0, 0], [258, 0, 0], [259, 0, 1], [260, 0, 1]]
    }, 
    {
      "op": "Activation", 
      "name": "stage3_tb/relu", 
      "attrs": {"act_type": "relu"}, 
      "inputs": [[261, 0, 0]]
    }, 
    {
      "op": "null", 
      "name": "stage4_tb_ext_pm3_weight", 
      "attrs": {
        "dilate": "(1, 1)", 
        "kernel": "(1, 1)", 
        "layout": "NCHW", 
        "no_bias": "True", 
        "num_filter": "256", 
        "num_group": "1", 
        "pad": "(0, 0)", 
        "stride": "(1, 1)"
      }, 
      "inputs": []
    }, 
    {
      "op": "Convolution", 
      "name": "stage4_tb_ext_pm3", 
      "attrs": {
        "dilate": "(1, 1)", 
        "kernel": "(1, 1)", 
        "layout": "NCHW", 
        "no_bias": "True", 
        "num_filter": "256", 
        "num_group": "1", 
        "pad": "(0, 0)", 
        "stride": "(1, 1)"
      }, 
      "inputs": [[262, 0, 0], [263, 0, 0]]
    }, 
    {
      "op": "null", 
      "name": "stage4_tb_ext_pm3/bn_gamma", 
      "attrs": {
        "axis": "1", 
        "eps": "0.0010000000475", 
        "fix_gamma": "False", 
        "momentum": "0.0", 
        "use_global_stats": "False"
      }, 
      "inputs": []
    }, 
    {
      "op": "null", 
      "name": "stage4_tb_ext_pm3/bn_beta", 
      "attrs": {
        "axis": "1", 
        "eps": "0.0010000000475", 
        "fix_gamma": "False", 
        "momentum": "0.0", 
        "use_global_stats": "False"
      }, 
      "inputs": []
    }, 
    {
      "op": "null", 
      "name": "stage4_tb_ext_pm3/bn_moving_mean", 
      "attrs": {
        "__init__": "[\"zero\", {}]", 
        "axis": "1", 
        "eps": "0.0010000000475", 
        "fix_gamma": "False", 
        "momentum": "0.0", 
        "use_global_stats": "False"
      }, 
      "inputs": []
    }, 
    {
      "op": "null", 
      "name": "stage4_tb_ext_pm3/bn_moving_var", 
      "attrs": {
        "__init__": "[\"one\", {}]", 
        "axis": "1", 
        "eps": "0.0010000000475", 
        "fix_gamma": "False", 
        "momentum": "0.0", 
        "use_global_stats": "False"
      }, 
      "inputs": []
    }, 
    {
      "op": "BatchNorm", 
      "name": "stage4_tb_ext_pm3/bn", 
      "attrs": {
        "axis": "1", 
        "eps": "0.0010000000475", 
        "fix_gamma": "False", 
        "momentum": "0.0", 
        "use_global_stats": "False"
      }, 
      "inputs": [[264, 0, 0], [265, 0, 0], [266, 0, 0], [267, 0, 1], [268, 0, 1]]
    }, 
    {
      "op": "Activation", 
      "name": "stage4_tb_ext_pm3/relu", 
      "attrs": {"act_type": "relu"}, 
      "inputs": [[269, 0, 0]]
    }, 
    {
      "op": "null", 
      "name": "stage4_tb_ext_pm3_b2a_weight", 
      "attrs": {
        "dilate": "(1, 1)", 
        "kernel": "(1, 1)", 
        "layout": "NCHW", 
        "no_bias": "True", 
        "num_filter": "128", 
        "num_group": "1", 
        "pad": "(0, 0)", 
        "stride": "(1, 1)"
      }, 
      "inputs": []
    }, 
    {
      "op": "Convolution", 
      "name": "stage4_tb_ext_pm3_b2a", 
      "attrs": {
        "dilate": "(1, 1)", 
        "kernel": "(1, 1)", 
        "layout": "NCHW", 
        "no_bias": "True", 
        "num_filter": "128", 
        "num_group": "1", 
        "pad": "(0, 0)", 
        "stride": "(1, 1)"
      }, 
      "inputs": [[262, 0, 0], [271, 0, 0]]
    }, 
    {
      "op": "null", 
      "name": "stage4_tb_ext_pm3_b2a/bn_gamma", 
      "attrs": {
        "axis": "1", 
        "eps": "0.0010000000475", 
        "fix_gamma": "False", 
        "momentum": "0.0", 
        "use_global_stats": "False"
      }, 
      "inputs": []
    }, 
    {
      "op": "null", 
      "name": "stage4_tb_ext_pm3_b2a/bn_beta", 
      "attrs": {
        "axis": "1", 
        "eps": "0.0010000000475", 
        "fix_gamma": "False", 
        "momentum": "0.0", 
        "use_global_stats": "False"
      }, 
      "inputs": []
    }, 
    {
      "op": "null", 
      "name": "stage4_tb_ext_pm3_b2a/bn_moving_mean", 
      "attrs": {
        "__init__": "[\"zero\", {}]", 
        "axis": "1", 
        "eps": "0.0010000000475", 
        "fix_gamma": "False", 
        "momentum": "0.0", 
        "use_global_stats": "False"
      }, 
      "inputs": []
    }, 
    {
      "op": "null", 
      "name": "stage4_tb_ext_pm3_b2a/bn_moving_var", 
      "attrs": {
        "__init__": "[\"one\", {}]", 
        "axis": "1", 
        "eps": "0.0010000000475", 
        "fix_gamma": "False", 
        "momentum": "0.0", 
        "use_global_stats": "False"
      }, 
      "inputs": []
    }, 
    {
      "op": "BatchNorm", 
      "name": "stage4_tb_ext_pm3_b2a/bn", 
      "attrs": {
        "axis": "1", 
        "eps": "0.0010000000475", 
        "fix_gamma": "False", 
        "momentum": "0.0", 
        "use_global_stats": "False"
      }, 
      "inputs": [[272, 0, 0], [273, 0, 0], [274, 0, 0], [275, 0, 1], [276, 0, 1]]
    }, 
    {
      "op": "Activation", 
      "name": "stage4_tb_ext_pm3_b2a/relu", 
      "attrs": {"act_type": "relu"}, 
      "inputs": [[277, 0, 0]]
    }, 
    {
      "op": "null", 
      "name": "stage4_tb_ext_pm3_b2b_weight", 
      "attrs": {
        "dilate": "(1, 1)", 
        "kernel": "(1, 1)", 
        "layout": "NCHW", 
        "no_bias": "True", 
        "num_filter": "128", 
        "num_group": "1", 
        "pad": "(0, 0)", 
        "stride": "(1, 1)"
      }, 
      "inputs": []
    }, 
    {
      "op": "Convolution", 
      "name": "stage4_tb_ext_pm3_b2b", 
      "attrs": {
        "dilate": "(1, 1)", 
        "kernel": "(1, 1)", 
        "layout": "NCHW", 
        "no_bias": "True", 
        "num_filter": "128", 
        "num_group": "1", 
        "pad": "(0, 0)", 
        "stride": "(1, 1)"
      }, 
      "inputs": [[278, 0, 0], [279, 0, 0]]
    }, 
    {
      "op": "null", 
      "name": "stage4_tb_ext_pm3_b2b/bn_gamma", 
      "attrs": {
        "axis": "1", 
        "eps": "0.0010000000475", 
        "fix_gamma": "False", 
        "momentum": "0.0", 
        "use_global_stats": "False"
      }, 
      "inputs": []
    }, 
    {
      "op": "null", 
      "name": "stage4_tb_ext_pm3_b2b/bn_beta", 
      "attrs": {
        "axis": "1", 
        "eps": "0.0010000000475", 
        "fix_gamma": "False", 
        "momentum": "0.0", 
        "use_global_stats": "False"
      }, 
      "inputs": []
    }, 
    {
      "op": "null", 
      "name": "stage4_tb_ext_pm3_b2b/bn_moving_mean", 
      "attrs": {
        "__init__": "[\"zero\", {}]", 
        "axis": "1", 
        "eps": "0.0010000000475", 
        "fix_gamma": "False", 
        "momentum": "0.0", 
        "use_global_stats": "False"
      }, 
      "inputs": []
    }, 
    {
      "op": "null", 
      "name": "stage4_tb_ext_pm3_b2b/bn_moving_var", 
      "attrs": {
        "__init__": "[\"one\", {}]", 
        "axis": "1", 
        "eps": "0.0010000000475", 
        "fix_gamma": "False", 
        "momentum": "0.0", 
        "use_global_stats": "False"
      }, 
      "inputs": []
    }, 
    {
      "op": "BatchNorm", 
      "name": "stage4_tb_ext_pm3_b2b/bn", 
      "attrs": {
        "axis": "1", 
        "eps": "0.0010000000475", 
        "fix_gamma": "False", 
        "momentum": "0.0", 
        "use_global_stats": "False"
      }, 
      "inputs": [[280, 0, 0], [281, 0, 0], [282, 0, 0], [283, 0, 1], [284, 0, 1]]
    }, 
    {
      "op": "Activation", 
      "name": "stage4_tb_ext_pm3_b2b/relu", 
      "attrs": {"act_type": "relu"}, 
      "inputs": [[285, 0, 0]]
    }, 
    {
      "op": "null", 
      "name": "stage4_tb_ext_pm3_b2c_weight", 
      "attrs": {
        "dilate": "(1, 1)", 
        "kernel": "(1, 1)", 
        "layout": "NCHW", 
        "no_bias": "True", 
        "num_filter": "256", 
        "num_group": "1", 
        "pad": "(0, 0)", 
        "stride": "(1, 1)"
      }, 
      "inputs": []
    }, 
    {
      "op": "Convolution", 
      "name": "stage4_tb_ext_pm3_b2c", 
      "attrs": {
        "dilate": "(1, 1)", 
        "kernel": "(1, 1)", 
        "layout": "NCHW", 
        "no_bias": "True", 
        "num_filter": "256", 
        "num_group": "1", 
        "pad": "(0, 0)", 
        "stride": "(1, 1)"
      }, 
      "inputs": [[286, 0, 0], [287, 0, 0]]
    }, 
    {
      "op": "null", 
      "name": "stage4_tb_ext_pm3_b2c/bn_gamma", 
      "attrs": {
        "axis": "1", 
        "eps": "0.0010000000475", 
        "fix_gamma": "False", 
        "momentum": "0.0", 
        "use_global_stats": "False"
      }, 
      "inputs": []
    }, 
    {
      "op": "null", 
      "name": "stage4_tb_ext_pm3_b2c/bn_beta", 
      "attrs": {
        "axis": "1", 
        "eps": "0.0010000000475", 
        "fix_gamma": "False", 
        "momentum": "0.0", 
        "use_global_stats": "False"
      }, 
      "inputs": []
    }, 
    {
      "op": "null", 
      "name": "stage4_tb_ext_pm3_b2c/bn_moving_mean", 
      "attrs": {
        "__init__": "[\"zero\", {}]", 
        "axis": "1", 
        "eps": "0.0010000000475", 
        "fix_gamma": "False", 
        "momentum": "0.0", 
        "use_global_stats": "False"
      }, 
      "inputs": []
    }, 
    {
      "op": "null", 
      "name": "stage4_tb_ext_pm3_b2c/bn_moving_var", 
      "attrs": {
        "__init__": "[\"one\", {}]", 
        "axis": "1", 
        "eps": "0.0010000000475", 
        "fix_gamma": "False", 
        "momentum": "0.0", 
        "use_global_stats": "False"
      }, 
      "inputs": []
    }, 
    {
      "op": "BatchNorm", 
      "name": "stage4_tb_ext_pm3_b2c/bn", 
      "attrs": {
        "axis": "1", 
        "eps": "0.0010000000475", 
        "fix_gamma": "False", 
        "momentum": "0.0", 
        "use_global_stats": "False"
      }, 
      "inputs": [[288, 0, 0], [289, 0, 0], [290, 0, 0], [291, 0, 1], [292, 0, 1]]
    }, 
    {
      "op": "Activation", 
      "name": "stage4_tb_ext_pm3_b2c/relu", 
      "attrs": {"act_type": "relu"}, 
      "inputs": [[293, 0, 0]]
    }, 
    {
      "op": "broadcast_add", 
      "name": "broadcast_add1", 
      "inputs": [[270, 0, 0], [294, 0, 0]]
    }, 
    {
      "op": "Activation", 
      "name": "stage4_tb_ext_pm3_res/relu", 
      "attrs": {"act_type": "relu"}, 
      "inputs": [[295, 0, 0]]
    }, 
    {
      "op": "null", 
      "name": "stage4_tb/ext/pm3/res/hyper/relu_weight", 
      "attrs": {
        "dilate": "(1, 1)", 
        "kernel": "(1, 1)", 
        "layout": "NCHW", 
        "no_bias": "True", 
        "num_filter": "256", 
        "num_group": "1", 
        "pad": "(0, 0)", 
        "stride": "(1, 1)"
      }, 
      "inputs": []
    }, 
    {
      "op": "Convolution", 
      "name": "stage4_tb/ext/pm3/res/hyper/relu", 
      "attrs": {
        "dilate": "(1, 1)", 
        "kernel": "(1, 1)", 
        "layout": "NCHW", 
        "no_bias": "True", 
        "num_filter": "256", 
        "num_group": "1", 
        "pad": "(0, 0)", 
        "stride": "(1, 1)"
      }, 
      "inputs": [[296, 0, 0], [297, 0, 0]]
    }, 
    {
      "op": "null", 
      "name": "stage4_tb/ext/pm3/res/hyper/relu/bn_gamma", 
      "attrs": {
        "axis": "1", 
        "eps": "0.0010000000475", 
        "fix_gamma": "False", 
        "momentum": "0.0", 
        "use_global_stats": "False"
      }, 
      "inputs": []
    }, 
    {
      "op": "null", 
      "name": "stage4_tb/ext/pm3/res/hyper/relu/bn_beta", 
      "attrs": {
        "axis": "1", 
        "eps": "0.0010000000475", 
        "fix_gamma": "False", 
        "momentum": "0.0", 
        "use_global_stats": "False"
      }, 
      "inputs": []
    }, 
    {
      "op": "null", 
      "name": "stage4_tb/ext/pm3/res/hyper/relu/bn_moving_mean", 
      "attrs": {
        "__init__": "[\"zero\", {}]", 
        "axis": "1", 
        "eps": "0.0010000000475", 
        "fix_gamma": "False", 
        "momentum": "0.0", 
        "use_global_stats": "False"
      }, 
      "inputs": []
    }, 
    {
      "op": "null", 
      "name": "stage4_tb/ext/pm3/res/hyper/relu/bn_moving_var", 
      "attrs": {
        "__init__": "[\"one\", {}]", 
        "axis": "1", 
        "eps": "0.0010000000475", 
        "fix_gamma": "False", 
        "momentum": "0.0", 
        "use_global_stats": "False"
      }, 
      "inputs": []
    }, 
    {
      "op": "BatchNorm", 
      "name": "stage4_tb/ext/pm3/res/hyper/relu/bn", 
      "attrs": {
        "axis": "1", 
        "eps": "0.0010000000475", 
        "fix_gamma": "False", 
        "momentum": "0.0", 
        "use_global_stats": "False"
      }, 
      "inputs": [[298, 0, 0], [299, 0, 0], [300, 0, 0], [301, 0, 1], [302, 0, 1]]
    }, 
    {
      "op": "Activation", 
      "name": "stage4_tb/ext/pm3/res/hyper/relu/relu", 
      "attrs": {"act_type": "relu"}, 
      "inputs": [[303, 0, 0]]
    }, 
    {
      "op": "null", 
      "name": "stage4_tb_relu_ext1_fe1_1_weight", 
      "attrs": {
        "dilate": "(1, 1)", 
        "kernel": "(1, 1)", 
        "layout": "NCHW", 
        "no_bias": "True", 
        "num_filter": "256", 
        "num_group": "1", 
        "pad": "(0, 0)", 
        "stride": "(1, 1)"
      }, 
      "inputs": []
    }, 
    {
      "op": "Convolution", 
      "name": "stage4_tb_relu_ext1_fe1_1", 
      "attrs": {
        "dilate": "(1, 1)", 
        "kernel": "(1, 1)", 
        "layout": "NCHW", 
        "no_bias": "True", 
        "num_filter": "256", 
        "num_group": "1", 
        "pad": "(0, 0)", 
        "stride": "(1, 1)"
      }, 
      "inputs": [[262, 0, 0], [305, 0, 0]]
    }, 
    {
      "op": "null", 
      "name": "stage4_tb_relu_ext1_fe1_1/bn_gamma", 
      "attrs": {
        "axis": "1", 
        "eps": "0.0010000000475", 
        "fix_gamma": "False", 
        "momentum": "0.0", 
        "use_global_stats": "False"
      }, 
      "inputs": []
    }, 
    {
      "op": "null", 
      "name": "stage4_tb_relu_ext1_fe1_1/bn_beta", 
      "attrs": {
        "axis": "1", 
        "eps": "0.0010000000475", 
        "fix_gamma": "False", 
        "momentum": "0.0", 
        "use_global_stats": "False"
      }, 
      "inputs": []
    }, 
    {
      "op": "null", 
      "name": "stage4_tb_relu_ext1_fe1_1/bn_moving_mean", 
      "attrs": {
        "__init__": "[\"zero\", {}]", 
        "axis": "1", 
        "eps": "0.0010000000475", 
        "fix_gamma": "False", 
        "momentum": "0.0", 
        "use_global_stats": "False"
      }, 
      "inputs": []
    }, 
    {
      "op": "null", 
      "name": "stage4_tb_relu_ext1_fe1_1/bn_moving_var", 
      "attrs": {
        "__init__": "[\"one\", {}]", 
        "axis": "1", 
        "eps": "0.0010000000475", 
        "fix_gamma": "False", 
        "momentum": "0.0", 
        "use_global_stats": "False"
      }, 
      "inputs": []
    }, 
    {
      "op": "BatchNorm", 
      "name": "stage4_tb_relu_ext1_fe1_1/bn", 
      "attrs": {
        "axis": "1", 
        "eps": "0.0010000000475", 
        "fix_gamma": "False", 
        "momentum": "0.0", 
        "use_global_stats": "False"
      }, 
      "inputs": [[306, 0, 0], [307, 0, 0], [308, 0, 0], [309, 0, 1], [310, 0, 1]]
    }, 
    {
      "op": "Activation", 
      "name": "stage4_tb_relu_ext1_fe1_1/relu", 
      "attrs": {"act_type": "relu"}, 
      "inputs": [[311, 0, 0]]
    }, 
    {
      "op": "null", 
      "name": "ext1_fe1_2_weight", 
      "attrs": {
        "dilate": "(1, 1)", 
        "kernel": "(3, 3)", 
        "layout": "NCHW", 
        "no_bias": "True", 
        "num_filter": "256", 
        "num_group": "1", 
        "pad": "(1, 1)", 
        "stride": "(2, 2)"
      }, 
      "inputs": []
    }, 
    {
      "op": "Convolution", 
      "name": "ext1_fe1_2", 
      "attrs": {
        "dilate": "(1, 1)", 
        "kernel": "(3, 3)", 
        "layout": "NCHW", 
        "no_bias": "True", 
        "num_filter": "256", 
        "num_group": "1", 
        "pad": "(1, 1)", 
        "stride": "(2, 2)"
      }, 
      "inputs": [[312, 0, 0], [313, 0, 0]]
    }, 
    {
      "op": "null", 
      "name": "ext1_fe1_2/bn_gamma", 
      "attrs": {
        "axis": "1", 
        "eps": "0.0010000000475", 
        "fix_gamma": "False", 
        "momentum": "0.0", 
        "use_global_stats": "False"
      }, 
      "inputs": []
    }, 
    {
      "op": "null", 
      "name": "ext1_fe1_2/bn_beta", 
      "attrs": {
        "axis": "1", 
        "eps": "0.0010000000475", 
        "fix_gamma": "False", 
        "momentum": "0.0", 
        "use_global_stats": "False"
      }, 
      "inputs": []
    }, 
    {
      "op": "null", 
      "name": "ext1_fe1_2/bn_moving_mean", 
      "attrs": {
        "__init__": "[\"zero\", {}]", 
        "axis": "1", 
        "eps": "0.0010000000475", 
        "fix_gamma": "False", 
        "momentum": "0.0", 
        "use_global_stats": "False"
      }, 
      "inputs": []
    }, 
    {
      "op": "null", 
      "name": "ext1_fe1_2/bn_moving_var", 
      "attrs": {
        "__init__": "[\"one\", {}]", 
        "axis": "1", 
        "eps": "0.0010000000475", 
        "fix_gamma": "False", 
        "momentum": "0.0", 
        "use_global_stats": "False"
      }, 
      "inputs": []
    }, 
    {
      "op": "BatchNorm", 
      "name": "ext1_fe1_2/bn", 
      "attrs": {
        "axis": "1", 
        "eps": "0.0010000000475", 
        "fix_gamma": "False", 
        "momentum": "0.0", 
        "use_global_stats": "False"
      }, 
      "inputs": [[314, 0, 0], [315, 0, 0], [316, 0, 0], [317, 0, 1], [318, 0, 1]]
    }, 
    {
      "op": "Activation", 
      "name": "ext1_fe1_2/relu", 
      "attrs": {"act_type": "relu"}, 
      "inputs": [[319, 0, 0]]
    }, 
    {
      "op": "null", 
      "name": "stage4_tb_ext_pm4_weight", 
      "attrs": {
        "dilate": "(1, 1)", 
        "kernel": "(1, 1)", 
        "layout": "NCHW", 
        "no_bias": "True", 
        "num_filter": "256", 
        "num_group": "1", 
        "pad": "(0, 0)", 
        "stride": "(1, 1)"
      }, 
      "inputs": []
    }, 
    {
      "op": "Convolution", 
      "name": "stage4_tb_ext_pm4", 
      "attrs": {
        "dilate": "(1, 1)", 
        "kernel": "(1, 1)", 
        "layout": "NCHW", 
        "no_bias": "True", 
        "num_filter": "256", 
        "num_group": "1", 
        "pad": "(0, 0)", 
        "stride": "(1, 1)"
      }, 
      "inputs": [[320, 0, 0], [321, 0, 0]]
    }, 
    {
      "op": "null", 
      "name": "stage4_tb_ext_pm4/bn_gamma", 
      "attrs": {
        "axis": "1", 
        "eps": "0.0010000000475", 
        "fix_gamma": "False", 
        "momentum": "0.0", 
        "use_global_stats": "False"
      }, 
      "inputs": []
    }, 
    {
      "op": "null", 
      "name": "stage4_tb_ext_pm4/bn_beta", 
      "attrs": {
        "axis": "1", 
        "eps": "0.0010000000475", 
        "fix_gamma": "False", 
        "momentum": "0.0", 
        "use_global_stats": "False"
      }, 
      "inputs": []
    }, 
    {
      "op": "null", 
      "name": "stage4_tb_ext_pm4/bn_moving_mean", 
      "attrs": {
        "__init__": "[\"zero\", {}]", 
        "axis": "1", 
        "eps": "0.0010000000475", 
        "fix_gamma": "False", 
        "momentum": "0.0", 
        "use_global_stats": "False"
      }, 
      "inputs": []
    }, 
    {
      "op": "null", 
      "name": "stage4_tb_ext_pm4/bn_moving_var", 
      "attrs": {
        "__init__": "[\"one\", {}]", 
        "axis": "1", 
        "eps": "0.0010000000475", 
        "fix_gamma": "False", 
        "momentum": "0.0", 
        "use_global_stats": "False"
      }, 
      "inputs": []
    }, 
    {
      "op": "BatchNorm", 
      "name": "stage4_tb_ext_pm4/bn", 
      "attrs": {
        "axis": "1", 
        "eps": "0.0010000000475", 
        "fix_gamma": "False", 
        "momentum": "0.0", 
        "use_global_stats": "False"
      }, 
      "inputs": [[322, 0, 0], [323, 0, 0], [324, 0, 0], [325, 0, 1], [326, 0, 1]]
    }, 
    {
      "op": "Activation", 
      "name": "stage4_tb_ext_pm4/relu", 
      "attrs": {"act_type": "relu"}, 
      "inputs": [[327, 0, 0]]
    }, 
    {
      "op": "null", 
      "name": "stage4_tb_ext_pm4_b2a_weight", 
      "attrs": {
        "dilate": "(1, 1)", 
        "kernel": "(1, 1)", 
        "layout": "NCHW", 
        "no_bias": "True", 
        "num_filter": "128", 
        "num_group": "1", 
        "pad": "(0, 0)", 
        "stride": "(1, 1)"
      }, 
      "inputs": []
    }, 
    {
      "op": "Convolution", 
      "name": "stage4_tb_ext_pm4_b2a", 
      "attrs": {
        "dilate": "(1, 1)", 
        "kernel": "(1, 1)", 
        "layout": "NCHW", 
        "no_bias": "True", 
        "num_filter": "128", 
        "num_group": "1", 
        "pad": "(0, 0)", 
        "stride": "(1, 1)"
      }, 
      "inputs": [[320, 0, 0], [329, 0, 0]]
    }, 
    {
      "op": "null", 
      "name": "stage4_tb_ext_pm4_b2a/bn_gamma", 
      "attrs": {
        "axis": "1", 
        "eps": "0.0010000000475", 
        "fix_gamma": "False", 
        "momentum": "0.0", 
        "use_global_stats": "False"
      }, 
      "inputs": []
    }, 
    {
      "op": "null", 
      "name": "stage4_tb_ext_pm4_b2a/bn_beta", 
      "attrs": {
        "axis": "1", 
        "eps": "0.0010000000475", 
        "fix_gamma": "False", 
        "momentum": "0.0", 
        "use_global_stats": "False"
      }, 
      "inputs": []
    }, 
    {
      "op": "null", 
      "name": "stage4_tb_ext_pm4_b2a/bn_moving_mean", 
      "attrs": {
        "__init__": "[\"zero\", {}]", 
        "axis": "1", 
        "eps": "0.0010000000475", 
        "fix_gamma": "False", 
        "momentum": "0.0", 
        "use_global_stats": "False"
      }, 
      "inputs": []
    }, 
    {
      "op": "null", 
      "name": "stage4_tb_ext_pm4_b2a/bn_moving_var", 
      "attrs": {
        "__init__": "[\"one\", {}]", 
        "axis": "1", 
        "eps": "0.0010000000475", 
        "fix_gamma": "False", 
        "momentum": "0.0", 
        "use_global_stats": "False"
      }, 
      "inputs": []
    }, 
    {
      "op": "BatchNorm", 
      "name": "stage4_tb_ext_pm4_b2a/bn", 
      "attrs": {
        "axis": "1", 
        "eps": "0.0010000000475", 
        "fix_gamma": "False", 
        "momentum": "0.0", 
        "use_global_stats": "False"
      }, 
      "inputs": [[330, 0, 0], [331, 0, 0], [332, 0, 0], [333, 0, 1], [334, 0, 1]]
    }, 
    {
      "op": "Activation", 
      "name": "stage4_tb_ext_pm4_b2a/relu", 
      "attrs": {"act_type": "relu"}, 
      "inputs": [[335, 0, 0]]
    }, 
    {
      "op": "null", 
      "name": "stage4_tb_ext_pm4_b2b_weight", 
      "attrs": {
        "dilate": "(1, 1)", 
        "kernel": "(1, 1)", 
        "layout": "NCHW", 
        "no_bias": "True", 
        "num_filter": "128", 
        "num_group": "1", 
        "pad": "(0, 0)", 
        "stride": "(1, 1)"
      }, 
      "inputs": []
    }, 
    {
      "op": "Convolution", 
      "name": "stage4_tb_ext_pm4_b2b", 
      "attrs": {
        "dilate": "(1, 1)", 
        "kernel": "(1, 1)", 
        "layout": "NCHW", 
        "no_bias": "True", 
        "num_filter": "128", 
        "num_group": "1", 
        "pad": "(0, 0)", 
        "stride": "(1, 1)"
      }, 
      "inputs": [[336, 0, 0], [337, 0, 0]]
    }, 
    {
      "op": "null", 
      "name": "stage4_tb_ext_pm4_b2b/bn_gamma", 
      "attrs": {
        "axis": "1", 
        "eps": "0.0010000000475", 
        "fix_gamma": "False", 
        "momentum": "0.0", 
        "use_global_stats": "False"
      }, 
      "inputs": []
    }, 
    {
      "op": "null", 
      "name": "stage4_tb_ext_pm4_b2b/bn_beta", 
      "attrs": {
        "axis": "1", 
        "eps": "0.0010000000475", 
        "fix_gamma": "False", 
        "momentum": "0.0", 
        "use_global_stats": "False"
      }, 
      "inputs": []
    }, 
    {
      "op": "null", 
      "name": "stage4_tb_ext_pm4_b2b/bn_moving_mean", 
      "attrs": {
        "__init__": "[\"zero\", {}]", 
        "axis": "1", 
        "eps": "0.0010000000475", 
        "fix_gamma": "False", 
        "momentum": "0.0", 
        "use_global_stats": "False"
      }, 
      "inputs": []
    }, 
    {
      "op": "null", 
      "name": "stage4_tb_ext_pm4_b2b/bn_moving_var", 
      "attrs": {
        "__init__": "[\"one\", {}]", 
        "axis": "1", 
        "eps": "0.0010000000475", 
        "fix_gamma": "False", 
        "momentum": "0.0", 
        "use_global_stats": "False"
      }, 
      "inputs": []
    }, 
    {
      "op": "BatchNorm", 
      "name": "stage4_tb_ext_pm4_b2b/bn", 
      "attrs": {
        "axis": "1", 
        "eps": "0.0010000000475", 
        "fix_gamma": "False", 
        "momentum": "0.0", 
        "use_global_stats": "False"
      }, 
      "inputs": [[338, 0, 0], [339, 0, 0], [340, 0, 0], [341, 0, 1], [342, 0, 1]]
    }, 
    {
      "op": "Activation", 
      "name": "stage4_tb_ext_pm4_b2b/relu", 
      "attrs": {"act_type": "relu"}, 
      "inputs": [[343, 0, 0]]
    }, 
    {
      "op": "null", 
      "name": "stage4_tb_ext_pm4_b2c_weight", 
      "attrs": {
        "dilate": "(1, 1)", 
        "kernel": "(1, 1)", 
        "layout": "NCHW", 
        "no_bias": "True", 
        "num_filter": "256", 
        "num_group": "1", 
        "pad": "(0, 0)", 
        "stride": "(1, 1)"
      }, 
      "inputs": []
    }, 
    {
      "op": "Convolution", 
      "name": "stage4_tb_ext_pm4_b2c", 
      "attrs": {
        "dilate": "(1, 1)", 
        "kernel": "(1, 1)", 
        "layout": "NCHW", 
        "no_bias": "True", 
        "num_filter": "256", 
        "num_group": "1", 
        "pad": "(0, 0)", 
        "stride": "(1, 1)"
      }, 
      "inputs": [[344, 0, 0], [345, 0, 0]]
    }, 
    {
      "op": "null", 
      "name": "stage4_tb_ext_pm4_b2c/bn_gamma", 
      "attrs": {
        "axis": "1", 
        "eps": "0.0010000000475", 
        "fix_gamma": "False", 
        "momentum": "0.0", 
        "use_global_stats": "False"
      }, 
      "inputs": []
    }, 
    {
      "op": "null", 
      "name": "stage4_tb_ext_pm4_b2c/bn_beta", 
      "attrs": {
        "axis": "1", 
        "eps": "0.0010000000475", 
        "fix_gamma": "False", 
        "momentum": "0.0", 
        "use_global_stats": "False"
      }, 
      "inputs": []
    }, 
    {
      "op": "null", 
      "name": "stage4_tb_ext_pm4_b2c/bn_moving_mean", 
      "attrs": {
        "__init__": "[\"zero\", {}]", 
        "axis": "1", 
        "eps": "0.0010000000475", 
        "fix_gamma": "False", 
        "momentum": "0.0", 
        "use_global_stats": "False"
      }, 
      "inputs": []
    }, 
    {
      "op": "null", 
      "name": "stage4_tb_ext_pm4_b2c/bn_moving_var", 
      "attrs": {
        "__init__": "[\"one\", {}]", 
        "axis": "1", 
        "eps": "0.0010000000475", 
        "fix_gamma": "False", 
        "momentum": "0.0", 
        "use_global_stats": "False"
      }, 
      "inputs": []
    }, 
    {
      "op": "BatchNorm", 
      "name": "stage4_tb_ext_pm4_b2c/bn", 
      "attrs": {
        "axis": "1", 
        "eps": "0.0010000000475", 
        "fix_gamma": "False", 
        "momentum": "0.0", 
        "use_global_stats": "False"
      }, 
      "inputs": [[346, 0, 0], [347, 0, 0], [348, 0, 0], [349, 0, 1], [350, 0, 1]]
    }, 
    {
      "op": "Activation", 
      "name": "stage4_tb_ext_pm4_b2c/relu", 
      "attrs": {"act_type": "relu"}, 
      "inputs": [[351, 0, 0]]
    }, 
    {
      "op": "broadcast_add", 
      "name": "broadcast_add2", 
      "inputs": [[328, 0, 0], [352, 0, 0]]
    }, 
    {
      "op": "Activation", 
      "name": "stage4_tb_ext_pm4_res/relu", 
      "attrs": {"act_type": "relu"}, 
      "inputs": [[353, 0, 0]]
    }, 
    {
      "op": "null", 
      "name": "stage4/tb/ext/pm4/feat/deconv/pre_weight", 
      "attrs": {
        "dilate": "(1, 1)", 
        "kernel": "(1, 1)", 
        "layout": "NCHW", 
        "no_bias": "True", 
        "num_filter": "256", 
        "num_group": "1", 
        "pad": "(0, 0)", 
        "stride": "(1, 1)"
      }, 
      "inputs": []
    }, 
    {
      "op": "Convolution", 
      "name": "stage4/tb/ext/pm4/feat/deconv/pre", 
      "attrs": {
        "dilate": "(1, 1)", 
        "kernel": "(1, 1)", 
        "layout": "NCHW", 
        "no_bias": "True", 
        "num_filter": "256", 
        "num_group": "1", 
        "pad": "(0, 0)", 
        "stride": "(1, 1)"
      }, 
      "inputs": [[354, 0, 0], [355, 0, 0]]
    }, 
    {
      "op": "null", 
      "name": "stage4/tb/ext/pm4/feat/deconv/pre/bn_gamma", 
      "attrs": {
        "axis": "1", 
        "eps": "0.0010000000475", 
        "fix_gamma": "False", 
        "momentum": "0.0", 
        "use_global_stats": "False"
      }, 
      "inputs": []
    }, 
    {
      "op": "null", 
      "name": "stage4/tb/ext/pm4/feat/deconv/pre/bn_beta", 
      "attrs": {
        "axis": "1", 
        "eps": "0.0010000000475", 
        "fix_gamma": "False", 
        "momentum": "0.0", 
        "use_global_stats": "False"
      }, 
      "inputs": []
    }, 
    {
      "op": "null", 
      "name": "stage4/tb/ext/pm4/feat/deconv/pre/bn_moving_mean", 
      "attrs": {
        "__init__": "[\"zero\", {}]", 
        "axis": "1", 
        "eps": "0.0010000000475", 
        "fix_gamma": "False", 
        "momentum": "0.0", 
        "use_global_stats": "False"
      }, 
      "inputs": []
    }, 
    {
      "op": "null", 
      "name": "stage4/tb/ext/pm4/feat/deconv/pre/bn_moving_var", 
      "attrs": {
        "__init__": "[\"one\", {}]", 
        "axis": "1", 
        "eps": "0.0010000000475", 
        "fix_gamma": "False", 
        "momentum": "0.0", 
        "use_global_stats": "False"
      }, 
      "inputs": []
    }, 
    {
      "op": "BatchNorm", 
      "name": "stage4/tb/ext/pm4/feat/deconv/pre/bn", 
      "attrs": {
        "axis": "1", 
        "eps": "0.0010000000475", 
        "fix_gamma": "False", 
        "momentum": "0.0", 
        "use_global_stats": "False"
      }, 
      "inputs": [[356, 0, 0], [357, 0, 0], [358, 0, 0], [359, 0, 1], [360, 0, 1]]
    }, 
    {
      "op": "Activation", 
      "name": "stage4/tb/ext/pm4/feat/deconv/pre/relu", 
      "attrs": {"act_type": "relu"}, 
      "inputs": [[361, 0, 0]]
    }, 
    {
      "op": "null", 
      "name": "stage4/tb/ext/pm4/feat/deconv_weight", 
      "attrs": {
        "dilate": "(1, 1)", 
        "kernel": "(2, 2)", 
        "layout": "NCHW", 
        "no_bias": "True", 
        "num_filter": "256", 
        "num_group": "1", 
        "pad": "(0, 0)", 
        "stride": "(2, 2)"
      }, 
      "inputs": []
    }, 
    {
      "op": "Deconvolution", 
      "name": "stage4/tb/ext/pm4/feat/deconv", 
      "attrs": {
        "dilate": "(1, 1)", 
        "kernel": "(2, 2)", 
        "layout": "NCHW", 
        "no_bias": "True", 
        "num_filter": "256", 
        "num_group": "1", 
        "pad": "(0, 0)", 
        "stride": "(2, 2)"
      }, 
      "inputs": [[362, 0, 0], [363, 0, 0]]
    }, 
    {
      "op": "null", 
      "name": "stage4/tb/ext/pm4/feat/deconv/bn_gamma", 
      "attrs": {
        "axis": "1", 
        "eps": "0.0010000000475", 
        "fix_gamma": "False", 
        "momentum": "0.0", 
        "use_global_stats": "False"
      }, 
      "inputs": []
    }, 
    {
      "op": "null", 
      "name": "stage4/tb/ext/pm4/feat/deconv/bn_beta", 
      "attrs": {
        "axis": "1", 
        "eps": "0.0010000000475", 
        "fix_gamma": "False", 
        "momentum": "0.0", 
        "use_global_stats": "False"
      }, 
      "inputs": []
    }, 
    {
      "op": "null", 
      "name": "stage4/tb/ext/pm4/feat/deconv/bn_moving_mean", 
      "attrs": {
        "__init__": "[\"zero\", {}]", 
        "axis": "1", 
        "eps": "0.0010000000475", 
        "fix_gamma": "False", 
        "momentum": "0.0", 
        "use_global_stats": "False"
      }, 
      "inputs": []
    }, 
    {
      "op": "null", 
      "name": "stage4/tb/ext/pm4/feat/deconv/bn_moving_var", 
      "attrs": {
        "__init__": "[\"one\", {}]", 
        "axis": "1", 
        "eps": "0.0010000000475", 
        "fix_gamma": "False", 
        "momentum": "0.0", 
        "use_global_stats": "False"
      }, 
      "inputs": []
    }, 
    {
      "op": "BatchNorm", 
      "name": "stage4/tb/ext/pm4/feat/deconv/bn", 
      "attrs": {
        "axis": "1", 
        "eps": "0.0010000000475", 
        "fix_gamma": "False", 
        "momentum": "0.0", 
        "use_global_stats": "False"
      }, 
      "inputs": [[364, 0, 0], [365, 0, 0], [366, 0, 0], [367, 0, 1], [368, 0, 1]]
    }, 
    {
      "op": "Activation", 
      "name": "stage4/tb/ext/pm4/feat/deconv/relu", 
      "attrs": {"act_type": "relu"}, 
      "inputs": [[369, 0, 0]]
    }, 
    {
      "op": "broadcast_add", 
      "name": "broadcast_add3", 
      "inputs": [[304, 0, 0], [370, 0, 0]]
    }, 
    {
      "op": "Activation", 
      "name": "stage4/tb/ext/pm3/res/deconv/pre/relu", 
      "attrs": {"act_type": "relu"}, 
      "inputs": [[371, 0, 0]]
    }, 
    {
      "op": "null", 
      "name": "stage4/tb/ext/pm3/feat/deconv/pre_weight", 
      "attrs": {
        "dilate": "(1, 1)", 
        "kernel": "(1, 1)", 
        "layout": "NCHW", 
        "no_bias": "True", 
        "num_filter": "256", 
        "num_group": "1", 
        "pad": "(0, 0)", 
        "stride": "(1, 1)"
      }, 
      "inputs": []
    }, 
    {
      "op": "Convolution", 
      "name": "stage4/tb/ext/pm3/feat/deconv/pre", 
      "attrs": {
        "dilate": "(1, 1)", 
        "kernel": "(1, 1)", 
        "layout": "NCHW", 
        "no_bias": "True", 
        "num_filter": "256", 
        "num_group": "1", 
        "pad": "(0, 0)", 
        "stride": "(1, 1)"
      }, 
      "inputs": [[372, 0, 0], [373, 0, 0]]
    }, 
    {
      "op": "null", 
      "name": "stage4/tb/ext/pm3/feat/deconv/pre/bn_gamma", 
      "attrs": {
        "axis": "1", 
        "eps": "0.0010000000475", 
        "fix_gamma": "False", 
        "momentum": "0.0", 
        "use_global_stats": "False"
      }, 
      "inputs": []
    }, 
    {
      "op": "null", 
      "name": "stage4/tb/ext/pm3/feat/deconv/pre/bn_beta", 
      "attrs": {
        "axis": "1", 
        "eps": "0.0010000000475", 
        "fix_gamma": "False", 
        "momentum": "0.0", 
        "use_global_stats": "False"
      }, 
      "inputs": []
    }, 
    {
      "op": "null", 
      "name": "stage4/tb/ext/pm3/feat/deconv/pre/bn_moving_mean", 
      "attrs": {
        "__init__": "[\"zero\", {}]", 
        "axis": "1", 
        "eps": "0.0010000000475", 
        "fix_gamma": "False", 
        "momentum": "0.0", 
        "use_global_stats": "False"
      }, 
      "inputs": []
    }, 
    {
      "op": "null", 
      "name": "stage4/tb/ext/pm3/feat/deconv/pre/bn_moving_var", 
      "attrs": {
        "__init__": "[\"one\", {}]", 
        "axis": "1", 
        "eps": "0.0010000000475", 
        "fix_gamma": "False", 
        "momentum": "0.0", 
        "use_global_stats": "False"
      }, 
      "inputs": []
    }, 
    {
      "op": "BatchNorm", 
      "name": "stage4/tb/ext/pm3/feat/deconv/pre/bn", 
      "attrs": {
        "axis": "1", 
        "eps": "0.0010000000475", 
        "fix_gamma": "False", 
        "momentum": "0.0", 
        "use_global_stats": "False"
      }, 
      "inputs": [[374, 0, 0], [375, 0, 0], [376, 0, 0], [377, 0, 1], [378, 0, 1]]
    }, 
    {
      "op": "Activation", 
      "name": "stage4/tb/ext/pm3/feat/deconv/pre/relu", 
      "attrs": {"act_type": "relu"}, 
      "inputs": [[379, 0, 0]]
    }, 
    {
      "op": "null", 
      "name": "stage4/tb/ext/pm3/feat/deconv_weight", 
      "attrs": {
        "dilate": "(1, 1)", 
        "kernel": "(2, 2)", 
        "layout": "NCHW", 
        "no_bias": "True", 
        "num_filter": "256", 
        "num_group": "1", 
        "pad": "(0, 0)", 
        "stride": "(2, 2)"
      }, 
      "inputs": []
    }, 
    {
      "op": "Deconvolution", 
      "name": "stage4/tb/ext/pm3/feat/deconv", 
      "attrs": {
        "dilate": "(1, 1)", 
        "kernel": "(2, 2)", 
        "layout": "NCHW", 
        "no_bias": "True", 
        "num_filter": "256", 
        "num_group": "1", 
        "pad": "(0, 0)", 
        "stride": "(2, 2)"
      }, 
      "inputs": [[380, 0, 0], [381, 0, 0]]
    }, 
    {
      "op": "null", 
      "name": "stage4/tb/ext/pm3/feat/deconv/bn_gamma", 
      "attrs": {
        "axis": "1", 
        "eps": "0.0010000000475", 
        "fix_gamma": "False", 
        "momentum": "0.0", 
        "use_global_stats": "False"
      }, 
      "inputs": []
    }, 
    {
      "op": "null", 
      "name": "stage4/tb/ext/pm3/feat/deconv/bn_beta", 
      "attrs": {
        "axis": "1", 
        "eps": "0.0010000000475", 
        "fix_gamma": "False", 
        "momentum": "0.0", 
        "use_global_stats": "False"
      }, 
      "inputs": []
    }, 
    {
      "op": "null", 
      "name": "stage4/tb/ext/pm3/feat/deconv/bn_moving_mean", 
      "attrs": {
        "__init__": "[\"zero\", {}]", 
        "axis": "1", 
        "eps": "0.0010000000475", 
        "fix_gamma": "False", 
        "momentum": "0.0", 
        "use_global_stats": "False"
      }, 
      "inputs": []
    }, 
    {
      "op": "null", 
      "name": "stage4/tb/ext/pm3/feat/deconv/bn_moving_var", 
      "attrs": {
        "__init__": "[\"one\", {}]", 
        "axis": "1", 
        "eps": "0.0010000000475", 
        "fix_gamma": "False", 
        "momentum": "0.0", 
        "use_global_stats": "False"
      }, 
      "inputs": []
    }, 
    {
      "op": "BatchNorm", 
      "name": "stage4/tb/ext/pm3/feat/deconv/bn", 
      "attrs": {
        "axis": "1", 
        "eps": "0.0010000000475", 
        "fix_gamma": "False", 
        "momentum": "0.0", 
        "use_global_stats": "False"
      }, 
      "inputs": [[382, 0, 0], [383, 0, 0], [384, 0, 0], [385, 0, 1], [386, 0, 1]]
    }, 
    {
      "op": "Activation", 
      "name": "stage4/tb/ext/pm3/feat/deconv/relu", 
      "attrs": {"act_type": "relu"}, 
      "inputs": [[387, 0, 0]]
    }, 
    {
      "op": "broadcast_add", 
      "name": "broadcast_add4", 
      "inputs": [[185, 0, 0], [388, 0, 0]]
    }, 
    {
      "op": "Activation", 
      "name": "stage4/tb/ext/pm2/res/deconv/pre/relu", 
      "attrs": {"act_type": "relu"}, 
      "inputs": [[389, 0, 0]]
    }, 
    {
      "op": "null", 
      "name": "stage4/tb/ext/pm2/res/deconv/pre/relu_cls_pred_conv_weight", 
      "attrs": {
        "kernel": "(3, 3)", 
        "num_filter": "81", 
        "pad": "(1, 1)", 
        "stride": "(1, 1)"
      }, 
      "inputs": []
    }, 
    {
      "op": "null", 
      "name": "stage4/tb/ext/pm2/res/deconv/pre/relu_cls_pred_conv_bias", 
      "attrs": {
        "__init__": "[\"constant\", {\"value\": 0.0}]", 
        "__lr_mult__": "2.0"
      }, 
      "inputs": []
    }, 
    {
      "op": "Convolution", 
      "name": "stage4/tb/ext/pm2/res/deconv/pre/relu_cls_pred_conv", 
      "attrs": {
        "kernel": "(3, 3)", 
        "num_filter": "81", 
        "pad": "(1, 1)", 
        "stride": "(1, 1)"
      }, 
      "inputs": [[390, 0, 0], [391, 0, 0], [392, 0, 0]]
    }, 
    {
      "op": "transpose", 
      "name": "transpose1", 
      "attrs": {"axes": "(0, 2, 3, 1)"}, 
      "inputs": [[393, 0, 0]]
    }, 
    {
      "op": "Flatten", 
      "name": "flatten1", 
      "inputs": [[394, 0, 0]]
    }, 
    {
      "op": "null", 
      "name": "stage4/tb/ext/pm3/res/deconv/pre/relu_cls_pred_conv_weight", 
      "attrs": {
        "kernel": "(3, 3)", 
        "num_filter": "108", 
        "pad": "(1, 1)", 
        "stride": "(1, 1)"
      }, 
      "inputs": []
    }, 
    {
      "op": "null", 
      "name": "stage4/tb/ext/pm3/res/deconv/pre/relu_cls_pred_conv_bias", 
      "attrs": {
        "__init__": "[\"constant\", {\"value\": 0.0}]", 
        "__lr_mult__": "2.0"
      }, 
      "inputs": []
    }, 
    {
      "op": "Convolution", 
      "name": "stage4/tb/ext/pm3/res/deconv/pre/relu_cls_pred_conv", 
      "attrs": {
        "kernel": "(3, 3)", 
        "num_filter": "108", 
        "pad": "(1, 1)", 
        "stride": "(1, 1)"
      }, 
      "inputs": [[372, 0, 0], [396, 0, 0], [397, 0, 0]]
    }, 
    {
      "op": "transpose", 
      "name": "transpose3", 
      "attrs": {"axes": "(0, 2, 3, 1)"}, 
      "inputs": [[398, 0, 0]]
    }, 
    {
      "op": "Flatten", 
      "name": "flatten4", 
      "inputs": [[399, 0, 0]]
    }, 
    {
      "op": "null", 
      "name": "stage4_tb_ext_pm4_res/relu_cls_pred_conv_weight", 
      "attrs": {
        "kernel": "(3, 3)", 
        "num_filter": "108", 
        "pad": "(1, 1)", 
        "stride": "(1, 1)"
      }, 
      "inputs": []
    }, 
    {
      "op": "null", 
      "name": "stage4_tb_ext_pm4_res/relu_cls_pred_conv_bias", 
      "attrs": {
        "__init__": "[\"constant\", {\"value\": 0.0}]", 
        "__lr_mult__": "2.0"
      }, 
      "inputs": []
    }, 
    {
      "op": "Convolution", 
      "name": "stage4_tb_ext_pm4_res/relu_cls_pred_conv", 
      "attrs": {
        "kernel": "(3, 3)", 
        "num_filter": "108", 
        "pad": "(1, 1)", 
        "stride": "(1, 1)"
      }, 
      "inputs": [[354, 0, 0], [401, 0, 0], [402, 0, 0]]
    }, 
    {
      "op": "transpose", 
      "name": "transpose5", 
      "attrs": {"axes": "(0, 2, 3, 1)"}, 
      "inputs": [[403, 0, 0]]
    }, 
    {
      "op": "Flatten", 
      "name": "flatten7", 
      "inputs": [[404, 0, 0]]
    }, 
    {
      "op": "Concat", 
      "name": "concat0", 
      "attrs": {
        "dim": "1", 
        "num_args": "3"
      }, 
      "inputs": [[395, 0, 0], [400, 0, 0], [405, 0, 0]]
    }, 
    {
      "op": "Reshape", 
      "name": "reshape0", 
      "attrs": {"shape": "(0, -1, 9)"}, 
      "inputs": [[406, 0, 0]]
    }, 
    {
      "op": "transpose", 
      "name": "multibox_cls_pred", 
      "attrs": {"axes": "(0, 2, 1)"}, 
      "inputs": [[407, 0, 0]]
    }, 
    {
      "op": "SoftmaxActivation", 
      "name": "cls_prob", 
      "attrs": {"mode": "channel"}, 
      "inputs": [[408, 0, 0]]
    }, 
    {
      "op": "null", 
      "name": "stage4/tb/ext/pm2/res/deconv/pre/relu_loc_pred_conv_weight", 
      "attrs": {
        "kernel": "(3, 3)", 
        "num_filter": "36", 
        "pad": "(1, 1)", 
        "stride": "(1, 1)"
      }, 
      "inputs": []
    }, 
    {
      "op": "null", 
      "name": "stage4/tb/ext/pm2/res/deconv/pre/relu_loc_pred_conv_bias", 
      "attrs": {
        "__init__": "[\"constant\", {\"value\": 0.0}]", 
        "__lr_mult__": "2.0"
      }, 
      "inputs": []
    }, 
    {
      "op": "Convolution", 
      "name": "stage4/tb/ext/pm2/res/deconv/pre/relu_loc_pred_conv", 
      "attrs": {
        "kernel": "(3, 3)", 
        "num_filter": "36", 
        "pad": "(1, 1)", 
        "stride": "(1, 1)"
      }, 
      "inputs": [[390, 0, 0], [410, 0, 0], [411, 0, 0]]
    }, 
    {
      "op": "transpose", 
      "name": "transpose0", 
      "attrs": {"axes": "(0, 2, 3, 1)"}, 
      "inputs": [[412, 0, 0]]
    }, 
    {
      "op": "Flatten", 
      "name": "flatten0", 
      "inputs": [[413, 0, 0]]
    }, 
    {
      "op": "null", 
      "name": "stage4/tb/ext/pm3/res/deconv/pre/relu_loc_pred_conv_weight", 
      "attrs": {
        "kernel": "(3, 3)", 
        "num_filter": "48", 
        "pad": "(1, 1)", 
        "stride": "(1, 1)"
      }, 
      "inputs": []
    }, 
    {
      "op": "null", 
      "name": "stage4/tb/ext/pm3/res/deconv/pre/relu_loc_pred_conv_bias", 
      "attrs": {
        "__init__": "[\"constant\", {\"value\": 0.0}]", 
        "__lr_mult__": "2.0"
      }, 
      "inputs": []
    }, 
    {
      "op": "Convolution", 
      "name": "stage4/tb/ext/pm3/res/deconv/pre/relu_loc_pred_conv", 
      "attrs": {
        "kernel": "(3, 3)", 
        "num_filter": "48", 
        "pad": "(1, 1)", 
        "stride": "(1, 1)"
      }, 
      "inputs": [[372, 0, 0], [415, 0, 0], [416, 0, 0]]
    }, 
    {
      "op": "transpose", 
      "name": "transpose2", 
      "attrs": {"axes": "(0, 2, 3, 1)"}, 
      "inputs": [[417, 0, 0]]
    }, 
    {
      "op": "Flatten", 
      "name": "flatten3", 
      "inputs": [[418, 0, 0]]
    }, 
    {
      "op": "null", 
      "name": "stage4_tb_ext_pm4_res/relu_loc_pred_conv_weight", 
      "attrs": {
        "kernel": "(3, 3)", 
        "num_filter": "48", 
        "pad": "(1, 1)", 
        "stride": "(1, 1)"
      }, 
      "inputs": []
    }, 
    {
      "op": "null", 
      "name": "stage4_tb_ext_pm4_res/relu_loc_pred_conv_bias", 
      "attrs": {
        "__init__": "[\"constant\", {\"value\": 0.0}]", 
        "__lr_mult__": "2.0"
      }, 
      "inputs": []
    }, 
    {
      "op": "Convolution", 
      "name": "stage4_tb_ext_pm4_res/relu_loc_pred_conv", 
      "attrs": {
        "kernel": "(3, 3)", 
        "num_filter": "48", 
        "pad": "(1, 1)", 
        "stride": "(1, 1)"
      }, 
      "inputs": [[354, 0, 0], [420, 0, 0], [421, 0, 0]]
    }, 
    {
      "op": "transpose", 
      "name": "transpose4", 
      "attrs": {"axes": "(0, 2, 3, 1)"}, 
      "inputs": [[422, 0, 0]]
    }, 
    {
      "op": "Flatten", 
      "name": "flatten6", 
      "inputs": [[423, 0, 0]]
    }, 
    {
      "op": "Concat", 
      "name": "multibox_loc_pred", 
      "attrs": {
        "dim": "1", 
        "num_args": "3"
      }, 
      "inputs": [[414, 0, 0], [419, 0, 0], [424, 0, 0]]
    }, 
    {
      "op": "_contrib_MultiBoxPrior", 
      "name": "stage4/tb/ext/pm2/res/deconv/pre/relu_anchors", 
      "attrs": {
        "clip": "False", 
        "ratios": "(0.25,0.5,1.0)", 
        "sizes": "(0.1,0.16,0.22)", 
        "steps": "(-1.0, -1.0)"
      }, 
      "inputs": [[390, 0, 0]]
    }, 
    {
      "op": "Flatten", 
      "name": "flatten2", 
      "inputs": [[426, 0, 0]]
    }, 
    {
      "op": "_contrib_MultiBoxPrior", 
      "name": "stage4/tb/ext/pm3/res/deconv/pre/relu_anchors", 
      "attrs": {
        "clip": "False", 
        "ratios": "(0.25,0.5,1.0,1.5)", 
        "sizes": "(0.3,0.38,0.46)", 
        "steps": "(-1.0, -1.0)"
      }, 
      "inputs": [[372, 0, 0]]
    }, 
    {
      "op": "Flatten", 
      "name": "flatten5", 
      "inputs": [[428, 0, 0]]
    }, 
    {
      "op": "_contrib_MultiBoxPrior", 
      "name": "stage4_tb_ext_pm4_res/relu_anchors", 
      "attrs": {
        "clip": "False", 
        "ratios": "(0.33,0.5,1.0,1.5)", 
        "sizes": "(0.56,0.66,0.76)", 
        "steps": "(-1.0, -1.0)"
      }, 
      "inputs": [[354, 0, 0]]
    }, 
    {
      "op": "Flatten", 
      "name": "flatten8", 
      "inputs": [[430, 0, 0]]
    }, 
    {
      "op": "Concat", 
      "name": "concat1", 
      "attrs": {
        "dim": "1", 
        "num_args": "3"
      }, 
      "inputs": [[427, 0, 0], [429, 0, 0], [431, 0, 0]]
    }, 
    {
      "op": "Reshape", 
      "name": "multibox_anchors", 
      "attrs": {"shape": "(0, -1, 4)"}, 
      "inputs": [[432, 0, 0]]
    }, 
    {
      "op": "_contrib_MultiBoxDetection", 
      "name": "detection", 
      "attrs": {
        "force_suppress": "True", 
        "nms_threshold": "0.45", 
        "nms_topk": "400", 
        "variances": "(0.1, 0.1, 0.2, 0.2)"
      }, 
      "inputs": [[409, 0, 0], [425, 0, 0], [433, 0, 0]]
    }
  ], 
  "arg_nodes": [
    0, 
    1, 
    3, 
    4, 
    5, 
    6, 
    9, 
    11, 
    12, 
    13, 
    14, 
    17, 
    19, 
    20, 
    21, 
    22, 
    25, 
    27, 
    28, 
    29, 
    30, 
    33, 
    35, 
    36, 
    37, 
    38, 
    42, 
    44, 
    45, 
    46, 
    47, 
    50, 
    52, 
    53, 
    54, 
    55, 
    59, 
    61, 
    62, 
    63, 
    64, 
    68, 
    70, 
    71, 
    72, 
    73, 
    76, 
    78, 
    79, 
    80, 
    81, 
    85, 
    87, 
    88, 
    89, 
    90, 
    93, 
    95, 
    96, 
    97, 
    98, 
    102, 
    104, 
    105, 
    106, 
    107, 
    110, 
    112, 
    113, 
    114, 
    115, 
    119, 
    121, 
    122, 
    123, 
    124, 
    127, 
    129, 
    130, 
    131, 
    132, 
    136, 
    138, 
    139, 
    140, 
    141, 
    144, 
    146, 
    147, 
    148, 
    149, 
    152, 
    154, 
    155, 
    156, 
    157, 
    160, 
    162, 
    163, 
    164, 
    165, 
    168, 
    170, 
    171, 
    172, 
    173, 
    178, 
    180, 
    181, 
    182, 
    183, 
    187, 
    189, 
    190, 
    191, 
    192, 
    195, 
    197, 
    198, 
    199, 
    200, 
    204, 
    206, 
    207, 
    208, 
    209, 
    212, 
    214, 
    215, 
    216, 
    217, 
    221, 
    223, 
    224, 
    225, 
    226, 
    229, 
    231, 
    232, 
    233, 
    234, 
    238, 
    240, 
    241, 
    242, 
    243, 
    246, 
    248, 
    249, 
    250, 
    251, 
    255, 
    257, 
    258, 
    259, 
    260, 
    263, 
    265, 
    266, 
    267, 
    268, 
    271, 
    273, 
    274, 
    275, 
    276, 
    279, 
    281, 
    282, 
    283, 
    284, 
    287, 
    289, 
    290, 
    291, 
    292, 
    297, 
    299, 
    300, 
    301, 
    302, 
    305, 
    307, 
    308, 
    309, 
    310, 
    313, 
    315, 
    316, 
    317, 
    318, 
    321, 
    323, 
    324, 
    325, 
    326, 
    329, 
    331, 
    332, 
    333, 
    334, 
    337, 
    339, 
    340, 
    341, 
    342, 
    345, 
    347, 
    348, 
    349, 
    350, 
    355, 
    357, 
    358, 
    359, 
    360, 
    363, 
    365, 
    366, 
    367, 
    368, 
    373, 
    375, 
    376, 
    377, 
    378, 
    381, 
    383, 
    384, 
    385, 
    386, 
    391, 
    392, 
    396, 
    397, 
    401, 
    402, 
    410, 
    411, 
    415, 
    416, 
    420, 
    421
  ], 
  "node_row_ptr": [
    0, 
    1, 
    2, 
    3, 
    4, 
    5, 
    6, 
    7, 
    10, 
    11, 
    12, 
    13, 
    14, 
    15, 
    16, 
    17, 
    20, 
    21, 
    22, 
    23, 
    24, 
    25, 
    26, 
    27, 
    30, 
    31, 
    32, 
    33, 
    34, 
    35, 
    36, 
    37, 
    40, 
    41, 
    42, 
    43, 
    44, 
    45, 
    46, 
    47, 
    50, 
    51, 
    52, 
    53, 
    54, 
    55, 
    56, 
    57, 
    58, 
    61, 
    62, 
    63, 
    64, 
    65, 
    66, 
    67, 
    68, 
    71, 
    72, 
    73, 
    74, 
    75, 
    76, 
    77, 
    78, 
    79, 
    82, 
    83, 
    84, 
    85, 
    86, 
    87, 
    88, 
    89, 
    90, 
    93, 
    94, 
    95, 
    96, 
    97, 
    98, 
    99, 
    100, 
    103, 
    104, 
    105, 
    106, 
    107, 
    108, 
    109, 
    110, 
    111, 
    114, 
    115, 
    116, 
    117, 
    118, 
    119, 
    120, 
    121, 
    124, 
    125, 
    126, 
    127, 
    128, 
    129, 
    130, 
    131, 
    132, 
    135, 
    136, 
    137, 
    138, 
    139, 
    140, 
    141, 
    142, 
    145, 
    146, 
    147, 
    148, 
    149, 
    150, 
    151, 
    152, 
    153, 
    156, 
    157, 
    158, 
    159, 
    160, 
    161, 
    162, 
    163, 
    166, 
    167, 
    168, 
    169, 
    170, 
    171, 
    172, 
    173, 
    174, 
    177, 
    178, 
    179, 
    180, 
    181, 
    182, 
    183, 
    184, 
    187, 
    188, 
    189, 
    190, 
    191, 
    192, 
    193, 
    194, 
    197, 
    198, 
    199, 
    200, 
    201, 
    202, 
    203, 
    204, 
    207, 
    208, 
    209, 
    210, 
    211, 
    212, 
    213, 
    214, 
    217, 
    218, 
    219, 
    220, 
    221, 
    222, 
    223, 
    224, 
    225, 
    226, 
    229, 
    230, 
    231, 
    232, 
    233, 
    234, 
    235, 
    236, 
    237, 
    240, 
    241, 
    242, 
    243, 
    244, 
    245, 
    246, 
    247, 
    250, 
    251, 
    252, 
    253, 
    254, 
    255, 
    256, 
    257, 
    258, 
    261, 
    262, 
    263, 
    264, 
    265, 
    266, 
    267, 
    268, 
    271, 
    272, 
    273, 
    274, 
    275, 
    276, 
    277, 
    278, 
    279, 
    282, 
    283, 
    284, 
    285, 
    286, 
    287, 
    288, 
    289, 
    292, 
    293, 
    294, 
    295, 
    296, 
    297, 
    298, 
    299, 
    300, 
    303, 
    304, 
    305, 
    306, 
    307, 
    308, 
    309, 
    310, 
    313, 
    314, 
    315, 
    316, 
    317, 
    318, 
    319, 
    320, 
    321, 
    324, 
    325, 
    326, 
    327, 
    328, 
    329, 
    330, 
    331, 
    334, 
    335, 
    336, 
    337, 
    338, 
    339, 
    340, 
    341, 
    344, 
    345, 
    346, 
    347, 
    348, 
    349, 
    350, 
    351, 
    354, 
    355, 
    356, 
    357, 
    358, 
    359, 
    360, 
    361, 
    364, 
    365, 
    366, 
    367, 
    368, 
    369, 
    370, 
    371, 
    372, 
    373, 
    376, 
    377, 
    378, 
    379, 
    380, 
    381, 
    382, 
    383, 
    386, 
    387, 
    388, 
    389, 
    390, 
    391, 
    392, 
    393, 
    396, 
    397, 
    398, 
    399, 
    400, 
    401, 
    402, 
    403, 
    406, 
    407, 
    408, 
    409, 
    410, 
    411, 
    412, 
    413, 
    416, 
    417, 
    418, 
    419, 
    420, 
    421, 
    422, 
    423, 
    426, 
    427, 
    428, 
    429, 
    430, 
    431, 
    432, 
    433, 
    436, 
    437, 
    438, 
    439, 
    440, 
    441, 
    442, 
    443, 
    444, 
    445, 
    448, 
    449, 
    450, 
    451, 
    452, 
    453, 
    454, 
    455, 
    458, 
    459, 
    460, 
    461, 
    462, 
    463, 
    464, 
    465, 
    466, 
    467, 
    470, 
    471, 
    472, 
    473, 
    474, 
    475, 
    476, 
    477, 
    480, 
    481, 
    482, 
    483, 
    484, 
    485, 
    486, 
    487, 
    488, 
    489, 
    490, 
    491, 
    492, 
    493, 
    494, 
    495, 
    496, 
    497, 
    498, 
    499, 
    500, 
    501, 
    502, 
    503, 
    504, 
    505, 
    506, 
    507, 
    508, 
    509, 
    510, 
    511, 
    512, 
    513, 
    514, 
    515, 
    516, 
    517, 
    518, 
    519, 
    520, 
    521, 
    522, 
    523, 
    524, 
    525, 
    526, 
    527
  ], 
  "heads": [[434, 0, 0]], 
  "attrs": {"mxnet_version": ["int", 10300]}
}